weights/dqn_final_model.pth (torch, 276704 bytes, 8 tensors)

fc1.weight f4 [128, 9]
0	0x3f05f500	0.52326965
1	0x3f0c6679	0.5484386
2	0x3ebdd843	0.37079057
3	0x3eb46a96	0.3523757
4	0x3f230383	0.63677233
5	0x3e6f87d9	0.23391666
6	0xbf1c817f	-0.61135095
7	0xbea0c25f	-0.31398293
8	0xbfb02626	-1.3761642
9	0xbfe7a20f	-1.8096331
10	0x3eb347b1	0.35015634
11	0xbe05df6d	-0.13073511
12	0x3ee2d8f3	0.44306144
13	0x3f2d84a3	0.6778051
14	0xbd894cb5	-0.06704084
15	0xbe1f0718	-0.1553005
16	0x3efc220c	0.49244726
17	0xbdf840c7	-0.1212173
18	0xbe9b9892	-0.3038984
19	0x3ec01b04	0.3752061
20	0xbf211b66	-0.6293243
21	0xbe0a5010	-0.13507104
22	0xbd9df1d6	-0.07712142
23	0xbe8ec79a	-0.2788666
24	0x3f613437	0.879703
25	0x3f699af9	0.91252095
26	0xbdfd8b28	-0.123800576
27	0xbf70e73f	-0.94102854
28	0x3ea389e3	0.31941137
29	0x3e74aaee	0.2389333
30	0x3edabad5	0.42720667
31	0x3ea6cce1	0.32578185
32	0x3f84c786	1.037339
33	0x3ed9544e	0.42447132
34	0xbf928a28	-1.1448412
35	0x3d6db3f5	0.05803295
36	0xbd85b954	-0.06529489
37	0xbe7a9dac	-0.2447421
38	0x3f88b5c0	1.0680466
39	0xbe9ac3be	-0.30227464
40	0x3e96c084	0.29443753
41	0xbf7b0774	-0.9805825
42	0xbd3257a9	-0.04354063
43	0xbef378c1	-0.47553065
44	0xbd241317	-0.040057268
45	0xc00091fd	-2.0089104
46	0x3eb8fd7f	0.36130902
47	0x3e110ff7	0.14166246
48	0x3f0d65c3	0.552334
49	0x3ed39893	0.41327342
50	0x3da76be3	0.08174875
51	0xbed3693e	-0.4129123
52	0x3ecc74e7	0.3993294
53	0x3ec6fb1b	0.38863453
54	0xbbd9c628	-0.0066459365
55	0xbe66269e	-0.22475669
56	0xbd504e52	-0.050855942
57	0xbeb3c6b1	-0.35112527
58	0xbee54ad6	-0.44783658
59	0xbde1cd8b	-0.11025532
60	0xbe51dc81	-0.20494272
61	0xbeb1fcb1	-0.347631
62	0x3fb49dfb	1.4110712
63	0x3e15fc35	0.1464699
64	0xbf760841	-0.96106344
65	0x3e82d664	0.25554192
66	0xbe885486	-0.26626986
67	0x3e1e17ab	0.15438716
68	0xbee57d0d	-0.4482197
69	0x3ea9abd9	0.33138922
70	0xbf897b79	-1.0740806
71	0x3fbbc5cf	1.4669741
72	0xbed5fdec	-0.4179529
73	0xbe291f16	-0.16515765
74	0x3e85e635	0.26152197
75	0x3ef1974d	0.47185746
76	0x3e4d3cfe	0.20042798
77	0xbf6bab52	-0.9205829
78	0xbf9baa76	-1.2161396
79	0x3f5e53dc	0.8684671
80	0x3f601d29	0.87544495
81	0xbdcbd48d	-0.0995265
82	0x3fb31dae	1.3993433
83	0x3ebbd9ea	0.36689693
84	0xbe2e27f3	-0.17007427
85	0x3deb402b	0.114868484
86	0xbec71fac	-0.3889135
87	0xbf68b334	-0.9089844
88	0x3e5aa312	0.21351269
89	0xbf4ad7ba	-0.7923542
90	0x3f95df9b	1.1708864
91	0xbee85436	-0.45376748
92	0xbe0e34ea	-0.13887373
93	0xbee71ff2	-0.4514156
94	0xbeb5959a	-0.354657
95	0x3f795187	0.97390026
96	0x3f2e42b7	0.6807055
97	0xbe95f629	-0.29289368
98	0xbefefa95	-0.49800554
99	0xbec2e9be	-0.38068956
100	0xbf04db6a	-0.518973
101	0x3df88909	0.121355124
102	0x3f39ad5d	0.72530156
103	0x3d4f25f9	0.050573323
104	0xbdd3a553	-0.103342675
105	0xbe70529c	-0.23469013
106	0xbf3744e4	-0.71589494
107	0x3daf5533	0.08561172
108	0x3e967f3c	0.29393947
109	0xbf6c3127	-0.922625
110	0xbe4c5f60	-0.19958258
111	0x3f23c3b6	0.63970506
112	0x3e38f06b	0.18060462
113	0x3e9364b1	0.2878776
114	0xbe8a5344	-0.27016652
115	0x3c9093b9	0.017648565
116	0x3e13e5f3	0.14443187
117	0x3dee45a8	0.116343796
118	0x3ed90f6f	0.42394587
119	0xbf11f6a5	-0.57016975
120	0x3f67a064	0.9047911
121	0x3d422da2	0.0474068
122	0xbf095e00	-0.5365906
123	0xbfac1b93	-1.3445915
124	0x3d5a7c37	0.053341117
125	0x3bd9106d	0.0066242726
126	0xbf1db819	-0.61609036
127	0x3efdc842	0.49566847
128	0xbeec6f9a	-0.46178895
129	0xbe86c9d4	-0.26325858
130	0xbeb8f646	-0.36125392
131	0xbdf8a54b	-0.12140902
132	0xbf1c3fba	-0.6103474
133	0x3ef62bc8	0.48080277
134	0x3f385778	0.72008467
135	0x3f9be76e	1.2180002
136	0xbf29eff5	-0.6638177
137	0xbef02bce	-0.4690842
138	0x3e720d1e	0.23637816
139	0x3e9c23f3	0.30496177
140	0xbf326599	-0.69686276
141	0xbf4b3264	-0.79373765
142	0x3f408c43	0.7521402
143	0xbe82701b	-0.25476155
144	0x3eb63be2	0.35592562
145	0xbdbb0bfd	-0.09133146
146	0x3ca0adbb	0.019614091
147	0xbe58dd43	-0.21178155
148	0xbf1b02de	-0.6055125
149	0x3f4a9046	0.79126394
150	0xbc4fb6aa	-0.012677828
151	0x3ea430dc	0.32068527
152	0x3dc78709	0.09742553
153	0x3f18f267	0.59744877
154	0x3f055c5b	0.5209405
155	0x3ef51cf6	0.47873658
156	0x3e51e49b	0.20497362
157	0x3d8739c8	0.06602818
158	0xbd86dd99	-0.06585235
159	0xbec4950a	-0.38394958
160	0xbfd54aac	-1.6663413
161	0xbf02fd7b	-0.5116803
162	0x3f25fdda	0.6484047
163	0xbfedf83b	-1.8591379
164	0xbf167219	-0.5876785
165	0x3f419787	0.7562184
166	0x3e9d6231	0.30738977
167	0xbee105db	-0.4394978
168	0x3eabb177	0.33533832
169	0xbedd9a17	-0.43281624
170	0x3ebd840a	0.370148
171	0x3ea6ce29	0.32579163
172	0x3ddb9ab4	0.10722867
173	0xbee635a9	-0.44962814
174	0x3e14bbc6	0.14524755
175	0x3eacc2d7	0.337424
176	0xbc61d34a	-0.013783285
177	0x3d1b1da6	0.03787007
178	0xbe94eb16	-0.29085606
179	0xbf12fff0	-0.5742178
180	0xbd889e8e	-0.06670867
181	0x3dce4178	0.10071081
182	0x3f951b2a	1.1648915
183	0xbf1e4f8c	-0.6184013
184	0x3dca40b0	0.098756194
185	0xbe726207	-0.23670207
186	0x3f47a792	0.77990067
187	0xbf892f4d	-1.071756
188	0xbd893f0a	-0.06701477
189	0x3f0fc529	0.5616022
190	0x3f1c4559	0.61043316
191	0xbe61f021	-0.22064258
192	0xbf32e22b	-0.69876355
193	0x3e3afff1	0.18261696
194	0x3e828fab	0.25500235
195	0x3e62295e	0.22086093
196	0x3ea64fa4	0.32482636
197	0x3ddbeb99	0.10738296
198	0xbd95d89c	-0.073167056
199	0x3ec0ccf6	0.37656373
200	0x3f231685	0.6370624
201	0xbd432cc3	-0.04765011
202	0x3d14360e	0.036184363
203	0x3e230f05	0.15923698
204	0xbfa2d737	-1.2721928
205	0x3ea18187	0.31544134
206	0x3e094658	0.1340574
207	0xbdc560c4	-0.09637597
208	0x3cfdd1c1	0.030983808
209	0xbf06642d	-0.52496606
210	0x3be49eef	0.006976954
211	0xbd2dd5c9	-0.04244021
212	0x3f18db16	0.597093
213	0xbeffc7ae	-0.4995703
214	0x3fd95898	1.6980162
215	0x3e8877e6	0.26653975
216	0xbeaec46c	-0.34134233
217	0x3bbdd58d	0.0057932795
218	0x3f7979da	0.97451556
219	0xbeff625a	-0.49879724
220	0xbe8bc1ed	-0.2729639
221	0x3f4edbd2	0.8080417
222	0xbeb9ea21	-0.3631144
223	0xbf3ff30c	-0.74980235
224	0x3e46efc1	0.19427396
225	0xbe636be6	-0.22209129
226	0xbf643b42	-0.8915292
227	0xbe2816ac	-0.16414899
228	0x3f102c14	0.5631726
229	0xbf0ccea7	-0.55002826
230	0x3ddadcdc	0.10686657
231	0xbd8fe5d9	-0.07026262
232	0x3e43342b	0.19062869
233	0xbe2c53a8	-0.16828787
234	0x3f0092a4	0.50223756
235	0x3f61637e	0.8804244
236	0xbd900fa0	-0.0703423
237	0x3d24114d	0.04005556
238	0xbecdbdcb	-0.40183863
239	0x3e98d960	0.29853344
240	0xbfada729	-1.3566638
241	0xbeaaa3b9	-0.33328035
242	0xbd90ef66	-0.07076912
243	0x3e9a52ff	0.30141446
244	0x3e1ae1fe	0.15125272
245	0xbf8182e4	-1.011807
246	0xbdb315b9	-0.08744378
247	0x3e11d730	0.14242244
248	0x3fb0cc38	1.3812323
249	0xbe262ce0	-0.16228056
250	0x3eb39f0f	0.3508229
251	0x3e3be58e	0.18349287
252	0x3edf7b3b	0.43648705
253	0xbf70312b	-0.93825024
254	0x3f063a76	0.52432954
255	0x3e89a0d0	0.26880503

fc1.bias f4 [128]
0	0x3f4b0540	0.79304886
1	0x3f430287	0.7617573
2	0x3f40ab1e	0.75261104
3	0xbf2c9e88	-0.674294
4	0x3f8e0be2	1.1097376
5	0x3b9b4636	0.0047385944
6	0xbf02d1c2	-0.51101315
7	0x3f369c82	0.7133256
8	0xbeed04d6	-0.46292752
9	0xbf58bf8a	-0.84667265
10	0x3ed039b6	0.4066903
11	0xbf2ab294	-0.6667874
12	0xbeefef29	-0.46862152
13	0xbf327274	-0.6970589
14	0xbed10ce7	-0.40830156
15	0x3f3b7361	0.7322293
16	0x3d102af4	0.035197213
17	0x3f7c1d3c	0.9848211
18	0x3f47ec6f	0.78095144
19	0x3e8880d4	0.26660788
20	0xbed74b08	-0.42049432
21	0x3f38c689	0.7217794
22	0xbe3aa87e	-0.18228337
23	0xbf4f8ce9	-0.81074387
24	0xbec1b540	-0.37833595
25	0xbeff292b	-0.49836096
26	0x3ddab587	0.10679155
27	0x3f5e7606	0.8689884
28	0xbf698142	-0.91212857
29	0x3f6907e1	0.9102765
30	0x3f8224e5	1.0167509
31	0xbe04af1b	-0.12957422
32	0xbed6a65d	-0.419238
33	0xbf4d8ffd	-0.80297834
34	0xbef26ca4	-0.4734851
35	0x3c6ba539	0.014382654
36	0x3ecb7b64	0.39742577
37	0xbf0a2ed4	-0.53977704
38	0x3f0d2d7a	0.55147517
39	0xbf037a30	-0.5135832
40	0x3f356d0a	0.70869505
41	0xbf3be2bb	-0.7339284
42	0xbe290c06	-0.16508493
43	0x3f2bdd3e	0.67134464
44	0xbed9e4db	-0.42557415
45	0x3efbcea1	0.49181083
46	0x3e8872b2	0.26650006
47	0xbd16204c	-0.036651894
48	0xbf0d9a52	-0.553136
49	0x3eb91e7f	0.3615608
50	0xbf80447f	-1.0020903
51	0xbf6b1dca	-0.9184233
52	0xbea70522	-0.32621104
53	0x3f0cdfb0	0.5502882
54	0x3f181c5f	0.5941829
55	0xbf074717	-0.5284285
56	0xbcc50a64	-0.024052806
57	0xbf162797	-0.5865416
58	0x3f34c8d3	0.70618933
59	0x3f1b4138	0.6064639
60	0xbe455d68	-0.19273913
61	0x3f05e0fc	0.52296424
62	0xbe2797ee	-0.1636655
63	0x3f1845f6	0.5948175
64	0xbea4bcdd	-0.3217534
65	0xbc90ffe0	-0.017700136
66	0x3f0889aa	0.5333506
67	0xbf0e8b72	-0.55681527
68	0xbf552fe1	-0.8327618
69	0xbd7c8cf2	-0.061657853
70	0xbf084cae	-0.53242004
71	0x3ec33f70	0.38134336
72	0xbec91731	-0.39275506
73	0x3d745c4e	0.05965834
74	0xbd2d2b09	-0.04227737
75	0xbed60e1b	-0.41807637
76	0xbf34fa8c	-0.70694804
77	0x3f489e4a	0.7836653
78	0x3dbbe5d2	0.09174694
79	0x3f19f2d1	0.60136133
80	0x3eac05b4	0.335981
81	0xbf1bf796	-0.6092466
82	0x3f02a5ce	0.5103425
83	0xbf455965	-0.7708953
84	0x3ef7e74f	0.48418662
85	0xbf003003	-0.5007326
86	0x3f2186c4	0.6309626
87	0x3cfe2b91	0.031026633
88	0x3e3ac783	0.1824017
89	0x3f197f7a	0.5996014
90	0xbed32d22	-0.4124537
91	0xbe288fb0	-0.16461062
92	0xbe2d6b93	-0.16935568
93	0xbda8592e	-0.08220135
94	0x3f6e190a	0.93006957
95	0xbf20589c	-0.6263521
96	0x3e5ddd91	0.21666552
97	0xbf0cd55c	-0.5501306
98	0xbf78eac7	-0.9723324
99	0xbf1f2bc8	-0.6217618
100	0x3ae8f036	0.0017771784
101	0x3f368359	0.7129417
102	0xbc16b330	-0.009197995
103	0x3f64bf06	0.8935398
104	0xbf4c0312	-0.79692185
105	0x3f30a574	0.6900246
106	0xbdcc5f76	-0.09979145
107	0xbe444c99	-0.19169845
108	0xbed85a6b	-0.42256483
109	0xbe73f7a0	-0.2382493
110	0xbe3bd73d	-0.18343826
111	0x3ef285ba	0.4736765
112	0x3dd30f48	0.10305649
113	0xbe9d14dc	-0.30679977
114	0x3e80b33e	0.2513675
115	0x3f0bb211	0.5456858
116	0x3e24115d	0.16022249
117	0x3f2c5442	0.6731607
118	0xbec39196	-0.3819701
119	0x3ddd8af0	0.10817516
120	0xbc9b1c98	-0.018934533
121	0x3e9aeb0e	0.30257457
122	0x3d821adc	0.06352779
123	0x3e82a930	0.25519705
124	0x3e6b1ff6	0.22961411
125	0x3f5737e8	0.8406968
126	0x3de82505	0.11335186
127	0x3fa1ebe3	1.2650112

fc2.weight f4 [256, 128]
0	0xbedac538	-0.4272859
1	0xbed55a47	-0.4167044
2	0xbe91eb1a	-0.2849968
3	0x3e2b97db	0.16757147
4	0xbe13c277	-0.14429651
5	0x3ef9d456	0.48794812
6	0x3f08228d	0.5317772
7	0xbda4f7ce	-0.080550775
8	0x3e1e0a2f	0.15433572
9	0xbc90788d	-0.017635608
10	0xbef6585b	-0.48114285
11	0xbd97dc6e	-0.074150905
12	0xbe001319	-0.12507285
13	0x3e12ecc5	0.14348133
14	0x3f5086ba	0.81455576
15	0xbf297f33	-0.66209716
16	0x3ea01a3f	0.31270024
17	0x3db55824	0.08854702
18	0xbf2b3bf6	-0.6688837
19	0xbf34f586	-0.7068714
20	0x3e8b6d01	0.272316
21	0x3e443a0b	0.19162767
22	0x3f81607a	1.0107567
23	0x3dade81b	0.08491536
24	0x3f456d2c	0.7711971
25	0xbe3ca6a3	-0.18422942
26	0x3e3e2cd1	0.18571784
27	0xbe9579ac	-0.2919439
28	0xbd85d7c4	-0.06535295
29	0x3d6cc3d3	0.05780394
30	0xbf461a02	-0.77383435
31	0x3ef76f9a	0.48327333
32	0x3f1ecf8c	0.6203544
33	0xbe118792	-0.14211872
34	0x3e377f67	0.17919694
35	0xbce100b9	-0.027466165
36	0x3ea03a6c	0.31294572
37	0xbe289473	-0.16462879
38	0x3d879d80	0.066218376
39	0xbeaab9ec	-0.33344972
40	0x3e6ddf0c	0.23229617
41	0xbe7e2afe	-0.24821088
42	0x3eda9cf1	0.42697862
43	0x3d578815	0.052620012
44	0x3d821b99	0.0635292
45	0x3d0ca62e	0.03433817
46	0x3e14e592	0.14540699
47	0x3d02e6ea	0.031958498
48	0x3f1eee67	0.62082523
49	0xbe9d8879	-0.30768183
50	0x3d88810c	0.06665239
51	0xbd8064db	-0.06269237
52	0x3ef9e085	0.48804107
53	0xbe8ddb37	-0.2770631
54	0xbe126459	-0.14296092
55	0x3c9dd645	0.01926721
56	0xbdcc1f21	-0.09966875
57	0x3e93c630	0.28862143
58	0x3f060a43	0.5235941
59	0xbe94ffa1	-0.2910128
60	0xbdea03ad	-0.11426482
61	0xbe8363ae	-0.25661987
62	0xbf1003c7	-0.56255764
63	0xbdaa71e6	-0.08322506
64	0x3e58cacd	0.21171112
65	0xbebd9cea	-0.37033778
66	0x3eb371d5	0.35047784
67	0x3f47461e	0.77841365
68	0x3eebb57c	0.460369
69	0x3ea979d2	0.33100754
70	0x3d42e612	0.047582693
71	0xbe9a0255	-0.30079904
72	0x3df03c99	0.11730308
73	0xbf3cee79	-0.7380138
74	0x3efbdc5b	0.49191555
75	0xbeaef842	-0.3417378
76	0xbe3f83fe	-0.18702695
77	0xbe445f84	-0.19177061
78	0x3d7ba9b1	0.061441127
79	0xbebf23d8	-0.37332034
80	0x3ec3bebb	0.38231453
81	0x3ee8b07f	0.45447156
82	0xbea1d76a	-0.3160966
83	0x3c94bb93	0.018155849
84	0xbebf3d47	-0.37351438
85	0xbea3b925	-0.31977192
86	0x3d8e136c	0.06937298
87	0x3e80b25a	0.2513607
88	0x3e867bc9	0.26266316
89	0x3edac3aa	0.42727405
90	0x3ee5b2ff	0.44863126
91	0x3f24304b	0.6413619
92	0xbe5790df	-0.21051358
93	0x3efb730e	0.49111217
94	0x3d1cc0cb	0.0382698
95	0x3ea45cb2	0.3210197
96	0xbf5b0da1	-0.8556767
97	0x3f5d8183	0.86525744
98	0xbda3ebff	-0.08003997
99	0x3d0b2f02	0.033980377
100	0xbef7dc7c	-0.48410404
101	0x3ea4c992	0.32185036
102	0xbe4a929a	-0.19782487
103	0xbe1f8086	-0.15576372
104	0x3dc74ff4	0.09732047
105	0xbe3724e7	-0.17885171
106	0xbf7873d5	-0.97051746
107	0xbefa9ec6	-0.4894926
108	0x3f009488	0.5022664
109	0xbe797ade	-0.24363276
110	0xbf057cf5	-0.52143794
111	0xbe5235ba	-0.20528308
112	0x3e3a6f43	0.18206505
113	0x3cd4675d	0.025928194
114	0xbf0ef39e	-0.5584048
115	0xbedfbb5c	-0.4369763
116	0x3f05e953	0.5230915
117	0xbc87afd7	-0.01656334
118	0x3e9e685f	0.30939004
119	0x3eec3cde	0.46140188
120	0xbf39baf2	-0.7255088
121	0xbe70571b	-0.23470728
122	0x3f02e4b4	0.51130223
123	0x3ef2091d	0.47272578
124	0x3db05561	0.08610035
125	0xbddef01e	-0.108856425
126	0x3e60436d	0.21900721
127	0xbde183cd	-0.11011467
128	0xbf10e3fa	-0.56597865
129	0xbeddf4a6	-0.43350714
130	0xbf11a7e2	-0.56896794
131	0xbced1b0e	-0.028943565
132	0xbe9f2396	-0.31081837
133	0xbeae684b	-0.34063944
134	0x3f02d663	0.5110838
135	0xbd5ad94e	-0.053429894
136	0x3e4c83ad	0.19972105
137	0xbe90c334	-0.28273928
138	0x3ee7fd4a	0.45310432
139	0x3e839e44	0.25706685
140	0x3eb260cf	0.34839484
141	0x3eab87b8	0.33501983
142	0x3e895c5a	0.2682827
143	0x3d662621	0.056188706
144	0x3f20d673	0.62827224
145	0xbe09cb7f	-0.13456534
146	0xbd9eab6b	-0.07747539
147	0xbeecddf3	-0.46263084
148	0x3e0e9ea9	0.13927712
149	0xbe4964a4	-0.19667298
150	0x3e7b10e5	0.24518164
151	0x3e85c4d4	0.2612673
152	0x3e62780e	0.2211611
153	0x3eca3f64	0.39501488
154	0xbc929085	-0.017891178
155	0xbe64479c	-0.22292942
156	0x3f885a04	1.065247
157	0xbedd7060	-0.43249798
158	0xbecc6052	-0.39917237
159	0xbe8d6786	-0.27618045
160	0xbe86f311	-0.2635732
161	0x3e9f38d5	0.31098047
162	0xbe39127f	-0.18073462
163	0x3f15fb12	0.5858623
164	0x3f0a7cbe	0.5409659
165	0x3f19856b	0.59969205
166	0xbe0310c7	-0.12799369
167	0x3e930ce3	0.2872077
168	0xbd8e2e3d	-0.06942413
169	0x3f12e113	0.57374686
170	0x3e98eb3b	0.29866967
171	0xbe2e1f96	-0.17004237
172	0x3e471232	0.19440535
173	0x3e49b0fd	0.19696422
174	0xbbb72730	-0.0055893883
175	0xbc2719cc	-0.010199022
176	0xbd357f50	-0.044310868
177	0xbe311401	-0.17292787
178	0xbd8c05c4	-0.06837037
179	0x3deddf7d	0.11614893
180	0x3eeb5c3c	0.45968807
181	0x3db3d5aa	0.087809876
182	0xbdde1399	-0.10843582
183	0x3e83b0d7	0.25720856
184	0xbe5e6cf8	-0.21721256
185	0x3e212dcd	0.15740128
186	0x3e3d2132	0.18469694
187	0xbf1d9447	-0.6155438
188	0xbe1d6eb9	-0.15374269
189	0x3d36cc57	0.044628467
190	0xbd6ac85b	-0.05731998
191	0xbf03e33e	-0.5151862
192	0x3e6cc78b	0.23122995
193	0xbe045b1b	-0.12925379
194	0xbed62777	-0.41826984
195	0x3f6c70b0	0.9235945
196	0x3f155733	0.5833618
197	0x3f096e34	0.5368378
198	0x3f3f5778	0.7474284
199	0x3eab9120	0.3350916
200	0x3ddb0a63	0.106953405
201	0xbe9e01f6	-0.3086087
202	0x3ecb2f60	0.39684582
203	0xbe86718b	-0.262585
204	0x3c95d8a6	0.018291783
205	0xbeb00081	-0.34375384
206	0xbe811853	-0.2521387
207	0xbf5abd3b	-0.8544499
208	0x3dea91f5	0.1145362
209	0x3ea5f85a	0.3241604
210	0xbdb809ce	-0.08986245
211	0x3e80307f	0.25037
212	0xbf1033f5	-0.5632928
213	0xbe4822bd	-0.19544502
214	0x3ed89d19	0.42307356
215	0x3f0b9e2d	0.5453823
216	0x3e017877	0.1264361
217	0x3e232df3	0.15935497
218	0x3e8660ff	0.26245877
219	0xbe8e2e06	-0.27769488
220	0xbe04f7b4	-0.12985116
221	0x3f157b43	0.5839121
222	0xbdaa13bc	-0.08304545
223	0x3f60af1b	0.8776719
224	0xbef2bdfb	-0.4741057
225	0x3ec6414c	0.38721693
226	0xbe1fdfad	-0.1561267
227	0x3e5537f3	0.20822124
228	0xbee261b0	-0.44215155
229	0x3eb5f0b8	0.35535216
230	0xbc88d90d	-0.01670506
231	0xbed87ff1	-0.42285112
232	0x3ead3359	0.33828238
233	0xbf384f7c	-0.71996284
234	0xbda11b2d	-0.078665115
235	0xbc28c11b	-0.010299946
236	0x3ed8d5c7	0.423506
237	0xbde679ee	-0.11253725
238	0x3e5be5bc	0.21474355
239	0x3da7fc47	0.08202415
240	0xbe823fe0	-0.25439358
241	0x3ea70b1f	0.32625672
242	0xbd251158	-0.040299743
243	0xbeec264e	-0.46122974
244	0x3eaa849f	0.33304307
245	0x3c343267	0.010998345
246	0x3f1348a8	0.5753274
247	0x3e4e20cf	0.20129703
248	0x3e54db90	0.20786881
249	0x3d4520b7	0.048126902
250	0xbe1b373e	-0.15157792
251	0x3e5a6a06	0.21329507
252	0x3e9f94b5	0.31168142
253	0x3e8afb9d	0.2714509
254	0xbcbd0b67	-0.023076726
255	0xbea4f667	-0.3221924

fc2.bias f4 [256]
0	0xbe24067e	-0.16018102
1	0xbcf4abaf	-0.029867021
2	0x3e8fd920	0.2809534
3	0x3e5341cf	0.20630573
4	0xbdfad39b	-0.12247392
5	0x3e941bbe	0.28927416
6	0x3e945379	0.28969935
7	0x3e350f89	0.17681707
8	0x3ca0fddd	0.019652301
9	0xbeb2c515	-0.34915987
10	0x3d14eb68	0.036357313
11	0x3e06c5c1	0.13161375
12	0xbcf5da00	-0.030011177
13	0xbed7b3b8	-0.42129302
14	0xbe18ea81	-0.14933206
15	0x3d93086c	0.07179341
16	0xbe1df617	-0.15425907
17	0x3d99edef	0.07516085
18	0xbce005ca	-0.02734651
19	0xbdf8313b	-0.12118765
20	0xbe9f4c63	-0.31112966
21	0x3cfa709d	0.030571276
22	0x3ebdb8af	0.37054965
23	0xbc2cfdcf	-0.01055856
24	0xbd3ed2c2	-0.046587713
25	0xbe18d244	-0.1492396
26	0xbdc768fc	-0.09736821
27	0xbda6acab	-0.081384026
28	0xbe0e0cb7	-0.13872038
29	0xbd635d25	-0.05550875
30	0x3e00d94c	0.12582892
31	0x3e7c9427	0.2466589
32	0xbd6889ac	-0.05677192
33	0x3ebc50dd	0.36780444
34	0x3eaa82f4	0.33303034
35	0xbe3d98af	-0.18515275
36	0x3e84e14d	0.2595314
37	0x3e8555b6	0.26041955
38	0x3cdd50d5	0.027016083
39	0xbde0ac46	-0.109703586
40	0xbc8c9a7e	-0.017163511
41	0xbe16604b	-0.1468517
42	0xbd8b154e	-0.06791173
43	0xbd16642e	-0.036716633
44	0xbe6dbe9d	-0.23217244
45	0x3dd794c6	0.10526423
46	0x3e094d6f	0.13408445
47	0xbe29e5db	-0.16591589
48	0x3d820fb3	0.06350651
49	0x3e0b710f	0.13617347
50	0x3f45db00	0.7728729
51	0x3e34d0e6	0.17657813
52	0xbd55c437	-0.05218908
53	0xbe17071d	-0.14748807
54	0xbdfda581	-0.12385083
55	0x3e2d1ad3	0.16904764
56	0x3dcd9d8b	0.100398146
57	0x3da3e1f9	0.08002085
58	0x3dab396d	0.083605625
59	0xbe959c24	-0.29220688
60	0x3ebe1635	0.37126318
61	0xbe55a635	-0.20864184
62	0xbd92ce4d	-0.07168255
63	0xbe5429fc	-0.20719141
64	0xbd181b29	-0.037135277
65	0x3ddd5b4b	0.108084284
66	0xbe29e052	-0.16589478
67	0xbca070d2	-0.019585047
68	0xbdb61b42	-0.08891918
69	0xbea6326f	-0.32460353
70	0x3c872fb8	0.016502246
71	0xbe9311fa	-0.28724653
72	0x3e03c1b4	0.1286686
73	0xbeb712fb	-0.35756668
74	0x3dfcf00a	0.12350471
75	0x3eac00ee	0.3359446
76	0xbeeef158	-0.46668506
77	0xbdc432ca	-0.0958
78	0x3dd35950	0.103197694
79	0xbd676af8	-0.056498498
80	0xbdb96246	-0.09051947
81	0xbca3edc1	-0.02001083
82	0xbe0ae0f7	-0.1356238
83	0xbeb0e2dc	-0.3454808
84	0xbe505ed7	-0.20348679
85	0xbeb1d5f9	-0.3473356
86	0x3ef11dcf	0.47093055
87	0xbe8eb6e4	-0.2787391
88	0x3e4088ac	0.18802136
89	0x3bdc44ce	0.0067220693
90	0xbe95432b	-0.29152808
91	0x3dd42fe5	0.10360698
92	0xbdc0a75b	-0.094069205
93	0x3d7ee392	0.062228747
94	0xbd851781	-0.06498624
95	0x3b7c41c4	0.0038491348
96	0xbe31e259	-0.17371501
97	0xbe5de3d4	-0.21668941
98	0xbe874dc8	-0.2642653
99	0x3c8504ed	0.0162377
100	0x3e681a45	0.22666271
101	0xbd7b6327	-0.061373856
102	0x3d490e19	0.04908571
103	0xbe5612df	-0.20905636
104	0xbedf32fd	-0.43593588
105	0x3e863336	0.26210946
106	0xbdc02953	-0.09382882
107	0xbe52750e	-0.20552465
108	0x3dd55549	0.104166575
109	0x3e0988a4	0.1343103
110	0x3d584ab6	0.052805625
111	0xbe8a610c	-0.27027166
112	0xbe12c967	-0.14334641
113	0xbdb4d355	-0.08829371
114	0x3d9fed3f	0.07808923
115	0xbeac479c	-0.33648384
116	0x3dc8cd72	0.098048106
117	0x3e1494a0	0.14509821
118	0xbd10981e	-0.03530132
119	0x3ea5af3b	0.32360253
120	0x3e307ca4	0.17235047
121	0xbd585cc0	-0.05282283
122	0x3e5b354d	0.21407051
123	0x3e06f80c	0.1318056
124	0x3ed01fc5	0.40649238
125	0xbe57bf8e	-0.21069166
126	0x3eee15af	0.46500918
127	0x3de97836	0.113998815
128	0x3e338cb1	0.17534138
129	0x3df31c04	0.11870578
130	0x3e5a7a88	0.21335804
131	0xbe0e88fb	-0.13919441
132	0xbdc24937	-0.09486621
133	0xbea0d58f	-0.31412932
134	0x3e34aa68	0.1764313
135	0xbe62dd9b	-0.22154848
136	0xbd495e91	-0.04916245
137	0x3d8819bd	0.06645534
138	0x3d92cb28	0.07167655
139	0xbe0fd8a5	-0.14047487
140	0xbc634cac	-0.0138732605
141	0xbea8b0f9	-0.3294752
142	0xbdd1999c	-0.10234377
143	0xbe9e073c	-0.30864894
144	0x3ecb989f	0.39764878
145	0xbe004ac9	-0.12528528
146	0xbdeb066f	-0.114758365
147	0x3e24a85b	0.16079848
148	0xbde00b33	-0.10939636
149	0xbdb539e6	-0.08848934
150	0xbdddab6d	-0.108237125
151	0xbdeffca3	-0.117181085
152	0xbc7b17a1	-0.015325458
153	0x3dfb1057	0.12258976
154	0xbec550c3	-0.3853818
155	0xbd59f9c1	-0.0532167
156	0x3bb85499	0.005625319
157	0x3d453195	0.04814299
158	0xbe891988	-0.2677729
159	0xbe181209	-0.1485063
160	0xbb502b55	-0.003176411
161	0x3ea59b87	0.3234522
162	0x3e442172	0.19153383
163	0xbdc7a90d	-0.09749041
164	0x3d8f242f	0.06989323
165	0x3df62ed0	0.120206475
166	0xbdde78be	-0.108628735
167	0x3e966064	0.29370415
168	0x3e32ffdd	0.17480417
169	0xbc329f22	-0.010902198
170	0xbd85e022	-0.065368906
171	0xbd5dfdd5	-0.05419715
172	0x3e3a83dd	0.18214364
173	0xbe090468	-0.13380587
174	0xbe6cb476	-0.23115715
175	0x3e710f43	0.23540978
176	0x3d400a88	0.046885043
177	0xbde03ad5	-0.10948721
178	0xbd300f14	-0.04298313
179	0x3e1d90b6	0.15387234
180	0xbd24a725	-0.040198464
181	0x3e047e1a	0.12938729
182	0x3d17737e	0.036975376
183	0xbe8e0023	-0.2773448
184	0xbddba0c9	-0.10724027
185	0x3cd9b7cb	0.026576897
186	0xbe3812ca	-0.17975917
187	0x3e4cd0bf	0.20001505
188	0xbefbad5d	-0.49155703
189	0xbda4433a	-0.08020635
190	0x3e53dd96	0.20689997
191	0xbe76e285	-0.24109848
192	0x3d83231e	0.064031824
193	0x3ee8c39c	0.45461738
194	0xbe32a45d	-0.17445512
195	0x3ed413d0	0.41421366
196	0x3d8829af	0.066485755
197	0x3c07767b	0.008267994
198	0xbe0145a6	-0.12624225
199	0x3cf81dfe	0.030287739
200	0x3cd55f2e	0.026046362
201	0x3c3721a5	0.011177455
202	0x3e8fffd3	0.28124866
203	0xbe58f344	-0.21186548
204	0xbde25bac	-0.11052641
205	0xbdefbe79	-0.11706252
206	0x3e97a6fe	0.29619592
207	0x3c1d600c	0.009605419
208	0xbaf8cb04	-0.0018981402
209	0x3e7752fd	0.24152751
210	0x3d84d454	0.06485811
211	0xbdbb81a8	-0.09155589
212	0x3d98eabc	0.07466647
213	0x3de614d7	0.11234444
214	0xbe4cc53a	-0.19997111
215	0x3b95ebf0	0.004575245
216	0x3e2ae0df	0.16687344
217	0x3df646f0	0.12025249
218	0xbc93b9b6	-0.01803289
219	0xbd123c31	-0.035701934
220	0xbd2dbf32	-0.042418666
221	0xbe0b5783	-0.13607602
222	0xbd4cd689	-0.050009284
223	0xbee96f20	-0.45592594
224	0xbe0107e3	-0.12600665
225	0x3da3dc2e	0.0800098
226	0xbd18b3b0	-0.03728074
227	0xbd290b9a	-0.04127083
228	0xbbc31d41	-0.005954415
229	0xbe8c91cc	-0.27454984
230	0xbe38ce54	-0.18047458
231	0x3e0651f7	0.13117205
232	0x3e1a63eb	0.15077178
233	0xbeba32ec	-0.36366975
234	0xbe95d68e	-0.29265255
235	0xbe571071	-0.21002366
236	0xbd91920b	-0.071079336
237	0x3df809e6	0.12111263
238	0xbc45ce13	-0.012073058
239	0xbd2f337b	-0.042773705
240	0xbe25a3c6	-0.16175756
241	0x3d2decab	0.042462032
242	0xbe20918c	-0.15680522
243	0xbe737ab0	-0.2377727
244	0x3e6372a0	0.22211695
245	0x3f060f1f	0.5236682
246	0x3cfcefbb	0.030876031
247	0xbdfdff75	-0.1240224
248	0xbda595cc	-0.08085212
249	0xbda0336c	-0.07822308
250	0x3d50add6	0.050947033
251	0x3e17514c	0.14777106
252	0x3e3a59a6	0.1819826
253	0x3d6b6b01	0.057475094
254	0x3cc05adc	0.023480825
255	0xbc0c8676	-0.00857698

fc3.weight f4 [128, 256]
0	0x3e7bec84	0.24601942
1	0xbe772082	-0.24133494
2	0x3d81bfe0	0.063354254
3	0xbcbdeaad	-0.023183191
4	0x3da90140	0.082521915
5	0xbe712d1c	-0.23552364
6	0x3ddfd2f2	0.109289065
7	0x3de45c5c	0.11150429
8	0x3e92c14e	0.28663105
9	0x3e2c53fc	0.16828912
10	0xbdfecd86	-0.12441544
11	0x3dfaad7d	0.122401215
12	0x3c245489	0.01002992
13	0x3e6ce8ce	0.23135683
14	0xbe0298a1	-0.12753536
15	0x3ebb369c	0.365651
16	0xbee0d80e	-0.43914837
17	0xbe96811b	-0.29395375
18	0x3eb8b670	0.3607669
19	0x3e38a303	0.18030934
20	0x3e80e5c8	0.2517531
21	0x3ec7d7a3	0.39031705
22	0xbe58b79a	-0.21163788
23	0xbe57e7a3	-0.21084456
24	0xbe7d1ff8	-0.24719226
25	0xbd3decc5	-0.04636838
26	0xbea864c1	-0.3288937
27	0x3ed6ece6	0.41977614
28	0x3e76517b	0.2405452
29	0x3ebd9ece	0.3703522
30	0x3e335a32	0.17514876
31	0x3db48b09	0.08815581
32	0x3d4bbdc1	0.04974151
33	0xbe4fe4c6	-0.20302114
34	0xbee484d5	-0.44632593
35	0x3ec928b6	0.39288872
36	0x3ea63113	0.32459316
37	0x3eec8819	0.46197584
38	0x3d3e867e	0.04651498
39	0x3d9469a3	0.07246711
40	0xbe956478	-0.29178214
41	0xbdb37694	-0.08762851
42	0x3eb754ee	0.35806984
43	0xbed4e8f5	-0.41583982
44	0x3dd9fc3e	0.106438145
45	0x3e34d3f1	0.17658974
46	0xbde21a2a	-0.11040147
47	0x3da2b1f0	0.07944095
48	0x3d997c38	0.07494396
49	0x3e863626	0.26213187
50	0x3e829665	0.25505367
51	0x3de11f8e	0.10992347
52	0x3f00c127	0.5029473
53	0x3eabea5e	0.33577245
54	0xbe5b0296	-0.21387705
55	0xbe0c0edf	-0.13677548
56	0xbee96e13	-0.45591792
57	0xbd715899	-0.058922384
58	0xbf732cd3	-0.9499027
59	0xbbf0f611	-0.007353552
60	0xbe584d2f	-0.21123193
61	0xbebe48a3	-0.37164792
62	0x3ea84f95	0.32873216
63	0x3d378482	0.044804104
64	0x3ed91c96	0.42404622
65	0x3f1d5db4	0.61471105
66	0xbc92a0f6	-0.017899018
67	0x3e682adb	0.22672598
68	0xbe1552a7	-0.1458231
69	0xbe2d3c56	-0.16917548
70	0x3f26031a	0.6484848
71	0x3dc44ad6	0.09584586
72	0xbe2d28e0	-0.16910124
73	0xbef2dcc9	-0.4743407
74	0xbe2ddaf7	-0.1697806
75	0x3f0f23b4	0.55913854
76	0x3d2a7ff8	0.041625947
77	0x3f111fb9	0.5668903
78	0x3d3d4410	0.046207488
79	0x3e0b7ea7	0.13622533
80	0x3f400cb2	0.7501937
81	0xbeaec8fb	-0.3413771
82	0xbe4ff328	-0.203076
83	0xbe2243ad	-0.15846129
84	0x3a5e5baa	0.0008482287
85	0xbdc901bc	-0.09814784
86	0xbe9577c7	-0.29192945
87	0x3ea39769	0.31951454
88	0xbe170415	-0.14747651
89	0xbda19b70	-0.078909755
90	0x3de5d71d	0.1122267
91	0xbe9bb68b	-0.30412707
92	0x3ea064c4	0.31326878
93	0xbd350824	-0.044197217
94	0x3ee974b8	0.45596862
95	0xbeab895b	-0.3350323
96	0xbe13ff33	-0.1445282
97	0xbe7451e1	-0.2385936
98	0x3b8ce9ee	0.0043003475
99	0xbeb96aba	-0.36214238
100	0xbf2c632b	-0.6733882
101	0x3e947a69	0.28999642
102	0x3e87a8af	0.26495883
103	0x3eb59a75	0.35469404
104	0xbd5ea258	-0.05435404
105	0x3e8f24d9	0.279578
106	0x3e2f44f0	0.17116141
107	0x3dbb3bad	0.091422416
108	0x3e72ddc7	0.23717414
109	0xbe15c8f9	-0.14627446
110	0xbec70943	-0.38874254
111	0x3e017da2	0.12645581
112	0x3dc942b4	0.09827176
113	0x3e8de83d	0.27716246
114	0xbd152e29	-0.036420975
115	0x3d52819e	0.051393144
116	0xbe0d6b42	-0.13810447
117	0xbf209c17	-0.62738174
118	0xbe244af9	-0.16044225
119	0xbe848083	-0.25879297
120	0x3f42d854	0.7611134
121	0xbe88bad9	-0.26705053
122	0xbe198b32	-0.14994505
123	0xbe825959	-0.25458792
124	0x3e0a5630	0.1350944
125	0x3f1f1347	0.6213879
126	0xbe0c9706	-0.13729486
127	0xbc3a1289	-0.011356958
128	0xbd4b582d	-0.049644638
129	0xbe87daee	-0.26534218
130	0x3e22f941	0.15915395
131	0xbdb7f815	-0.08982865
132	0xbe9187e4	-0.2842399
133	0x3eabdbb0	0.33566046
134	0x3e2351f1	0.15949227
135	0x3ea0f6b5	0.31438223
136	0x3e948d7e	0.290142
137	0x3d7586f5	0.05994316
138	0xbec75c12	-0.38937432
139	0xbe1920c7	-0.1495391
140	0xbe859ca0	-0.26096058
141	0xbe07ce7e	-0.13262364
142	0xbf1d5c10	-0.614686
143	0x3d3d0bf8	0.046153992
144	0x3df24aa0	0.1183064
145	0xbf15d1d0	-0.58523273
146	0x3d81d217	0.063388996
147	0xbf50ab21	-0.8151112
148	0x3c97209d	0.018448168
149	0xbec119cd	-0.37714997
150	0xbdffa891	-0.12483323
151	0xbdbcdf36	-0.092222616
152	0xbe7fea62	-0.24991754
153	0x3f253560	0.6453457
154	0xbdd5831e	-0.10425399
155	0x3e229f6b	0.15881126
156	0xbe6d529e	-0.23176047
157	0x3e8c2c2e	0.27377456
158	0xbd555e49	-0.05209187
159	0xbd05f793	-0.03270681
160	0xbe299a13	-0.16562681
161	0xbe9d0bea	-0.30673152
162	0x3d44e158	0.048066467
163	0xbe6e0bf9	-0.23246755
164	0x3d921c69	0.07134325
165	0xbe011cde	-0.12608668
166	0x3d802660	0.062573195
167	0x3e367d63	0.17821269
168	0x3cc32e2c	0.023825727
169	0x3eabe334	0.3357178
170	0xbe27ddd9	-0.16393222
171	0xbe5e480b	-0.2170717
172	0xbd2e5ab8	-0.042566985
173	0xbe4f4a1d	-0.20243116
174	0xbd44f308	-0.048083335
175	0x3da885b4	0.08228627
176	0xbebc50da	-0.36780435
177	0x3de60e83	0.11233237
178	0xbdbe7a02	-0.09300615
179	0xbdda4b69	-0.106589146
180	0xbe1b0391	-0.15138079
181	0xbed9a193	-0.42506084
182	0xbdbd4d9b	-0.09243318
183	0xbe1de00c	-0.15417498
184	0x3ea1aa19	0.31575087
185	0x3ee4a88a	0.44659835
186	0xbebb77c0	-0.366148
187	0xbdb5e72e	-0.08881985
188	0xbda13e74	-0.0787324
189	0xbe595797	-0.21224819
190	0xbd9a3de4	-0.07531336
191	0x3eaaddf2	0.33372456
192	0xbda269a8	-0.079303086
193	0x3ef46654	0.4773432
194	0xbe4a164a	-0.19735065
195	0x3e5e29a6	0.21695575
196	0xbf25c5d3	-0.6475498
197	0x3eb0820c	0.34474218
198	0x3de953de	0.113929495
199	0x3d72ac3a	0.05924628
200	0x3ecfd602	0.40592963
201	0x3ea84e47	0.3287222
202	0xbea8de85	-0.3298227
203	0x3d3b82e3	0.04577912
204	0xbe4fef1e	-0.2030606
205	0x3e358048	0.17724717
206	0x3edc1724	0.42986405
207	0x3ea486fa	0.3213423
208	0xbe716f18	-0.23577535
209	0x3db6af9a	0.08920212
210	0xbe904921	-0.28180793
211	0xbe457b8a	-0.19285408
212	0xbedc7973	-0.43061408
213	0x3ce63ef3	0.028106188
214	0x3dd8e77d	0.10591028
215	0x3e291bf9	0.16514577
216	0x3e14e1af	0.14539216
217	0xbe196b49	-0.14982332
218	0xbe0e1bf4	-0.13877851
219	0xbf7fd672	-0.9993659
220	0x3e808d47	0.25107786
221	0xbba07bd8	-0.004897576
222	0x3e433434	0.19062883
223	0xbe758519	-0.23976554
224	0x3b18279e	0.0023216973
225	0xbe5b1d81	-0.21397974
226	0x3ef1949c	0.47183692
227	0xbe3bdad0	-0.18345189
228	0x3f0e0ac5	0.55485183
229	0x3ea14476	0.31497544
230	0x3ccb9f55	0.024856249
231	0xbe80d7d0	-0.25164652
232	0x3dcf8bad	0.10134063
233	0x3de08a72	0.10963906
234	0x3e11067d	0.14162631
235	0x3da53ab8	0.0806784
236	0xbe015a35	-0.12632068
237	0x3cc9e5c9	0.024645703
238	0xbee021c6	-0.43775767
239	0x3f28af8a	0.6589285
240	0x3e9a9e78	0.30199027
241	0x3e98cc88	0.29843545
242	0xbe38022d	-0.1796958
243	0xbf1dcbe0	-0.61639214
244	0xbe853883	-0.26019678
245	0x3c49c6a4	0.012315426
246	0xbe092968	-0.13394701
247	0xbecc9f43	-0.39965257
248	0x3f0ad9b3	0.5423843
249	0xbd053608	-0.03252223
250	0xbd5722ae	-0.052523308
251	0x3e22ddc5	0.15904911
252	0x3f807c43	1.0037922
253	0xbcb72103	-0.022354608
254	0xbeac8bf7	-0.33700535
255	0x3c2171eb	0.00985382

fc3.bias f4 [128]
0	0x3d0f10b7	0.03492805
1	0xbd9bff8a	-0.076170996
2	0xbec6d4f7	-0.38834354
3	0x3e2a58c3	0.16635422
4	0x3e7988fb	0.2436866
5	0x3d2e1850	0.042503655
6	0xbcacae14	-0.0210791
7	0x3ee7b97d	0.45258704
8	0xbe2aa8ac	-0.16665906
9	0x3e1a0bec	0.1504361
10	0xbf0f6d28	-0.56025934
11	0xbf2d5140	-0.677021
12	0x3e6a3f7a	0.22875777
13	0xbefcb5fc	-0.49357593
14	0x3f7d5a70	0.9896612
15	0xbd6d0f9c	-0.057876214
16	0xbe785edc	-0.24254936
17	0xbd3c6759	-0.045996998
18	0x3f69f92a	0.9139582
19	0x3de3c00d	0.11120615
20	0xbee0e9c3	-0.43928346
21	0xbf0354f3	-0.513015
22	0xbf0ecc8b	-0.5578086
23	0x3e1de8ac	0.15420789
24	0xbf7a8277	-0.97855324
25	0xbe0efa4f	-0.13962673
26	0xbe661b4b	-0.22471349
27	0x3e9cab28	0.30599332
28	0x3f299557	0.662435
29	0xbe2e8c5b	-0.17045729
30	0x3cd8660f	0.026415853
31	0x3eec136d	0.4610857
32	0xbf35927e	-0.70926654
33	0x3e20e983	0.15714078
34	0xbe3dd337	-0.18537603
35	0xbe296caf	-0.16545366
36	0xbdf778a0	-0.12083554
37	0xbe297fed	-0.16552706
38	0xbeecdf29	-0.46264008
39	0x3eab5590	0.33463717
40	0x3e2aa26f	0.16663526
41	0x3eb2fd06	0.34958667
42	0xbed1f0f0	-0.41004133
43	0x3e7db866	0.24777374
44	0xbe0ad39e	-0.13557288
45	0xbe20b6ad	-0.15694685
46	0x3ea79d28	0.32737088
47	0xbb501411	-0.0031750242
48	0x3e8341ed	0.25636235
49	0xbd83ede9	-0.06441862
50	0xbd534aab	-0.05158488
51	0xbf59c509	-0.85066277
52	0x3edd2ff7	0.43200657
53	0x3e973515	0.29532686
54	0x3e0c5047	0.13702498
55	0xbe839ca8	-0.25705457
56	0x3dd76cc5	0.10518793
57	0xbf325ea9	-0.6967569
58	0x3d36af5e	0.044600837
59	0xbf3078cf	-0.6893434
60	0xbf2c6344	-0.6733897
61	0xbea7a252	-0.32741028
62	0x3ed4a0fd	0.41529074
63	0xbf173784	-0.59069085
64	0xbf35d6b0	-0.7103071
65	0xbd113933	-0.03545494
66	0xbea416f2	-0.32048756
67	0x3e12c3cc	0.14332503
68	0x3ef063bf	0.469511
69	0xbf0d2193	-0.55129355
70	0x3d8cb31b	0.06870099
71	0x3ecbee2a	0.39830142
72	0xbe024195	-0.1272033
73	0x394acec9	0.00019341255
74	0x3d725269	0.059160624
75	0x3d64a472	0.05582089
76	0xbf09c0ee	-0.5381001
77	0x3f277ac1	0.6542168
78	0x3e3d896b	0.18509452
79	0xbdb8d991	-0.090258725
80	0x3e3d230f	0.18470405
81	0x3df7f2e9	0.12106878
82	0xbf650dd4	-0.89474225
83	0x3eb45d69	0.35227516
84	0xbdb3e7a5	-0.08784417
85	0x3e294f40	0.16534138
86	0xbe73903c	-0.2378549
87	0x3efd6b97	0.49496147
88	0xbe3a7230	-0.18207622
89	0x3e0d22f0	0.13782859
90	0x3d97696e	0.07393156
91	0x3ecf8449	0.40530613
92	0x3cdf1758	0.02723281
93	0xbe830149	-0.25586918
94	0x3e808e89	0.25108746
95	0x3cb79b88	0.02241303
96	0x3ecc0d25	0.39853778
97	0xbe230a30	-0.15921855
98	0x3e3294e1	0.17439605
99	0xbec6ba0e	-0.38813823
100	0x3ebbfb26	0.3671505
101	0xbee7af12	-0.45250756
102	0xbf0677bf	-0.5252647
103	0xbe7a1cc1	-0.24425031
104	0xbe4a5e52	-0.19762543
105	0xbefd4a0c	-0.49470556
106	0x3e9c6bc4	0.3055097
107	0x3e4248d3	0.18973093
108	0x3d07ff97	0.033202734
109	0x3e524772	0.20535067
110	0x3d4bbfb1	0.049743358
111	0x3e1d6560	0.15370703
112	0x3e791607	0.24324809
113	0x3e724c0a	0.23661819
114	0x3e8f68e1	0.28009704
115	0x3d245ed8	0.040129513
116	0xbf124416	-0.5713514
117	0xbed50273	-0.4160343
118	0x3e8f6086	0.2800333
119	0xbe2abb7c	-0.16673082
120	0x3f1c1da4	0.6098273
121	0x3f1346c6	0.57529867
122	0xbeb8e9ba	-0.3611582
123	0xba03e0ef	-0.0005030771
124	0x3ee99887	0.45624182
125	0xbecea117	-0.40357277
126	0x3f2c64e5	0.6734145
127	0x3d078b0b	0.033091586

fc4.weight f4 [9, 128]
0	0x3d76b9ff	0.060235973
1	0xbdd709b8	-0.104999006
2	0xbcee67e1	-0.029102268
3	0xbd81a3e6	-0.06330089
4	0xbd1f8e57	-0.038954105
5	0x3ce9aee3	0.028525775
6	0x3e386bb5	0.18009837
7	0xbe105cd2	-0.14097908
8	0xbd5193e7	-0.05116644
9	0x3dd9e77f	0.106398575
10	0xbd583057	-0.052780475
11	0x3de2308d	0.110444166
12	0x3de1bf78	0.11022848
13	0xbe4f3169	-0.20233692
14	0x3ec91148	0.39270997
15	0x3e18c12d	0.1491744
16	0xbd7eb9e0	-0.062188983
17	0x3d10a7bd	0.035316218
18	0xbe2972ce	-0.16547701
19	0xbce50352	-0.027955685
20	0xbc679d4b	-0.014136623
21	0x3dced005	0.1009827
22	0x3e365ad8	0.17808092
23	0x3e942aee	0.28939003
24	0x3ec59d33	0.38596496
25	0xbda97a69	-0.08275301
26	0x3dbcc121	0.09216524
27	0xbbd38b72	-0.006455832
28	0xbea2dbe9	-0.31808403
29	0x3bca541a	0.0061745765
30	0xbe22fe77	-0.15917383
31	0xbc6d90dc	-0.014499869
32	0x3daa9227	0.083286576
33	0xbbd4c702	-0.00649345
34	0xbdf8b043	-0.12142994
35	0xbe2cfade	-0.16892573
36	0x3d0e9dfa	0.034818627
37	0x3d16a8b5	0.036781985
38	0x3deccb26	0.11562185
39	0x3af0caa6	0.0018370941
40	0x3d1d922e	0.038469486
41	0xbdd48839	-0.10377545
42	0xbdbd69ce	-0.09248696
43	0x3df0544f	0.117348306
44	0xbd2c4c8c	-0.04206519
45	0x3d5610a1	0.052261952
46	0xbd42d5c8	-0.04756716
47	0x3ca972de	0.020684656
48	0x3acd8f65	0.0015682994
49	0xbe297dd3	-0.16551904
50	0xbc11024a	-0.008850643
51	0x3de10f81	0.10989285
52	0xbdc4f321	-0.09616686
53	0xbd10e493	-0.035374235
54	0xbbfd70bd	-0.0077343867
55	0xbdbf915f	-0.09353899
56	0xbe5c961a	-0.21541634
57	0xbe09de8a	-0.13463798
58	0xbd7038e6	-0.058648013
59	0x3dfbffad	0.12304626
60	0x3a70ba36	0.0009183021
61	0xbd45dbb4	-0.04830523
62	0x3d3643de	0.044498317
63	0x3e0894f4	0.13338071
64	0x3c9adae9	0.018903213
65	0x3d4cde9f	0.050016996
66	0x3db5e608	0.088817656
67	0x3d42d73e	0.047568552
68	0xbdf8f8d4	-0.12156835
69	0xbdffc608	-0.12488943
70	0x3e76b3a9	0.24091972
71	0x3ecc3dc3	0.3989087
72	0x3d83236f	0.06403243
73	0x3e5d4323	0.21607642
74	0x3e9e78d6	0.30951566
75	0x3de387eb	0.11109909
76	0xbe8c1bce	-0.27364963
77	0xbcb4191a	-0.021984626
78	0x3e2a45bd	0.16628166
79	0xbe02bb18	-0.12766683
80	0x3ca0497f	0.019566296
81	0xbeb5c08b	-0.3549846
82	0x3e4516ad	0.19246931
83	0xbbf3f0e7	-0.0074444893
84	0xbcf07b2b	-0.029355606
85	0xbe7327ee	-0.237457
86	0xbd8b3a28	-0.06798202
87	0xbe6924a1	-0.22767879
88	0xbdc5da7a	-0.09660812
89	0xbe02424b	-0.12720601
90	0x3b12ed88	0.0022419412
91	0xbbbc61cd	-0.0057489634
92	0x3d709cb3	0.05874319
93	0x3da00da3	0.07815101
94	0x3e3b3b24	0.18284279
95	0x3de3711e	0.1110556
96	0xbe4ec337	-0.20191656
97	0x3dca5ab6	0.09880583
98	0x3dcdf6a1	0.10056806
99	0x3d9a5f85	0.0753775
100	0x3d47d098	0.048782915
101	0x3ec6765a	0.3876217
102	0xbe3fdb75	-0.1873606
103	0xbd7c4a05	-0.061594028
104	0xbc7a6775	-0.015283455
105	0xbde7a65e	-0.11311029
106	0xbd860782	-0.06544401
107	0xbd060ce2	-0.03272713
108	0x3cce8da0	0.025214016
109	0xbc7e76f0	-0.015531287
110	0x3de0da87	0.10979181
111	0xbcab98f2	-0.020946953
112	0xbd407200	-0.04698372
113	0xbe804db4	-0.25059283
114	0xbe33e9c5	-0.17569645
115	0x3c966b19	0.018361615
116	0x3e11bd04	0.1423226
117	0xbe47726c	-0.19477242
118	0x3d139c05	0.036037464
119	0x3ea7aaa8	0.32747388
120	0x3def5326	0.11685781
121	0xbc5bc2d0	-0.013413146
122	0xbdde997a	-0.10869117
123	0x3ecf0215	0.40431276
124	0xbd6545d7	-0.055974808
125	0x3e8d0fcd	0.27551118
126	0xbe30cb94	-0.17265159
127	0xbcca9ff0	-0.024734467
128	0x3bc8ec09	0.006131653
129	0xbce44064	-0.027862735
130	0x3c8b2897	0.016987128
131	0x3dc586e4	0.09644869
132	0xbd23388d	-0.039848853
133	0xbd27848f	-0.040897902
134	0x3ead1021	0.33801368
135	0xbe9bf138	-0.30457473
136	0x3eb302fb	0.3496321
137	0x3dc340d7	0.095338516
138	0x3d8f50c5	0.069978274
139	0x3de68042	0.11254932
140	0xbe810a8b	-0.25203356
141	0x3d4bd0f6	0.049759828
142	0x3efb068c	0.49028432
143	0x3d80ba49	0.06285531
144	0xbe074512	-0.13209942
145	0x3e96df8a	0.29467422
146	0xbcdb05d9	-0.026736187
147	0x3c150224	0.009094749
148	0xbdf4fcef	-0.11962306
149	0x3e6eb42f	0.23310922
150	0xbc27480b	-0.0102100475
151	0x3d332f5a	0.04374633
152	0xbf2d8aa1	-0.67789656
153	0x3dfdecc5	0.12398676
154	0xbdb3beaa	-0.08776601
155	0x3ccd0d51	0.025030764
156	0xbec70e2c	-0.38878
157	0xbe064a55	-0.13114293
158	0xbcca5908	-0.024700657
159	0xbd3bbe9a	-0.04583607
160	0xbd0470df	-0.032334205
161	0x3cb3d529	0.021952229
162	0xbcc15829	-0.023601608
163	0x3b179a2c	0.0023132665
164	0x3ba1d622	0.0049388567
165	0x3dc9f50a	0.098611906
166	0x3e91df38	0.28490615
167	0xbd3445f4	-0.044012025
168	0x3d6c7aef	0.057734426
169	0xbe9a17ce	-0.30096287
170	0xbe0340ad	-0.1281764
171	0xbd602383	-0.054721367
172	0x3d41e6fc	0.047339424
173	0xb9c5ed8c	-0.00037751754
174	0x3e2a5292	0.1663306
175	0xbe0e4ee3	-0.1389728
176	0xbe2649b6	-0.16239056
177	0xbe0ec389	-0.13941778
178	0x3e035eef	0.12829183
179	0x3b2910aa	0.0025797286
180	0x3e66e4b5	0.22548182
181	0x3c045445	0.008076732
182	0xbe0a183e	-0.1348581
183	0x3c891afb	0.016736498
184	0x3e2048ca	0.15652767
185	0xbc974a36	-0.018468004
186	0xbdc5772c	-0.09641871
187	0x3dbbdff3	0.09173574
188	0x3e3f84fd	0.18703075
189	0x3e08d61b	0.13362925
190	0x3c929c05	0.017896662
191	0xbd92e1f3	-0.07172003
192	0x3d45a0a4	0.048248902
193	0xbe08845f	-0.13331746
194	0x3c989597	0.018626017
195	0xbd1ef2e9	-0.038805876
196	0x3d8fb098	0.070161045
197	0x3d92fe01	0.07177354
198	0x3e2e94c7	0.17048942
199	0xbcf70891	-0.030155452
200	0xbe9b730f	-0.3036122
201	0xbde1301f	-0.109955065
202	0xbcb66f18	-0.02226977
203	0xbcab8972	-0.020939562
204	0x3b2b7af6	0.002616582
205	0x3da72044	0.08160451
206	0x3b3b342d	0.0028565035
207	0xbedd7885	-0.43256012
208	0xbcf42a75	-0.029805401
209	0x3e175991	0.1478026
210	0x3d7a9d62	0.06118525
211	0xbd2a2018	-0.041534513
212	0x3e637041	0.2221079
213	0xbd5e814f	-0.054322537
214	0x3e68a36f	0.22718595
215	0xbcf61b4b	-0.030042311
216	0x3b12b1e3	0.002238386
217	0x3e39e08f	0.18152069
218	0x3da35c9d	0.07976649
219	0x3e13dc10	0.14439416
220	0xbd6eb174	-0.0582747
221	0xbd4566b6	-0.048193656
222	0xbc6e3042	-0.014537873
223	0x3d3481f3	0.04406924
224	0x3e3302ff	0.17481612
225	0xbd69a91b	-0.057046037
226	0xbb7908d7	-0.0037999654
227	0x3da71d9c	0.081599444
228	0xbdf98343	-0.12183239
229	0xbb20327e	-0.0024444158
230	0xbbb2f6b4	-0.005461538
231	0x3e25e9c5	0.16202457
232	0xbd969113	-0.073518895
233	0xbdd4f92d	-0.10399089
234	0x3d1538c9	0.036431108
235	0x3bda4742	0.0066613266
236	0xbe840f20	-0.2579279
237	0x3d28c3ff	0.04120254
238	0x3d5ddc7e	0.054165356
239	0xbbc739ef	-0.0060799043
240	0x3d9d001d	0.07666037
241	0x3deea1eb	0.11651977
242	0xbdac99a8	-0.08427745
243	0xbea39220	-0.31947422
244	0x3e2c09ce	0.16800615
245	0x3d368032	0.04455585
246	0xbb754d44	-0.0037430087
247	0xbd860810	-0.065445065
248	0xbe09dc1f	-0.13462876
249	0xbd8d965c	-0.069134444
250	0x3e1a5a09	0.15073408
251	0x3e565495	0.20930703
252	0xbe85d117	-0.26136085
253	0x3dafd787	0.085860305
254	0xbe65c767	-0.22439347
255	0xbe921f93	-0.28539714

fc4.bias f4 [9]
0	0xbed7881a	-0.42096025
1	0xbe96da6b	-0.29463515
2	0xbee42a52	-0.44563538
3	0xbee366ad	-0.44414273
4	0xbe8b246e	-0.2717623
5	0xbf067f3f	-0.5253791
6	0xbe1897f2	-0.14901713
7	0xbf095079	-0.53638417
8	0xbee6b928	-0.45063138
