weights/dqn_final_model.pth (torch, 78488 bytes, 6 tensors)

fc1.weight f4 [128, 9]
0	0x40959a31	4.675072
1	0x4052f4d2	3.2961926
2	0xc017bd87	-2.3709428
3	0xbff39c2f	-1.9032038
4	0x3eff9677	0.49919483
5	0xbfbf5744	-1.4948506
6	0xc009d800	-2.1538086
7	0xc032166b	-2.7826183
8	0xbdf72540	-0.12067652
9	0x3fb7f8b3	1.4372772
10	0x40b55b79	5.667416
11	0xbffd4a7a	-1.9788353
12	0xc01d6127	-2.4590547
13	0xbf88dc92	-1.0692313
14	0xbfdb6114	-1.7139001
15	0xbc97fc02	-0.018552784
16	0x3f939ec9	1.1532832
17	0x3fec4d9e	1.8461187
18	0xbff431cc	-1.9077697
19	0x402b51d1	2.6768687
20	0x3fc1be6d	1.5136238
21	0xbef22647	-0.47294828
22	0x3e276f5f	0.16351078
23	0xbfcc52b0	-1.5962734
24	0xc0065f1a	-2.0995545
25	0x405b604b	3.4277523
26	0xbe2c975d	-0.16854616
27	0xbff1ca82	-1.8889925
28	0xbff0eb11	-1.8821737
29	0xc0187d68	-2.3826542
30	0xbf9c25a5	-1.2198988
31	0xc01b2874	-2.424344
32	0xc014f2ba	-2.3273149
33	0xc01a69cf	-2.412708
34	0xbf8313c7	-1.024041
35	0xbfa4ce56	-1.2875469
36	0xc010322a	-2.2530618
37	0xc03da1d0	-2.9630013
38	0xc0151cb6	-2.3298774
39	0xbf9b9879	-1.2155906
40	0xbf9ae716	-1.2101772
41	0xbe85436b	-0.26027998
42	0xbf3c90c5	-0.736584
43	0xc021b174	-2.5264559
44	0x3e9123c7	0.28347608
45	0xbfc326a1	-1.5246164
46	0xbfe979f5	-1.8240343
47	0x3ee83751	0.45354703
48	0xbf955861	-1.1667596
49	0xbf0c5682	-0.548195
50	0xbff105e4	-1.8829923
51	0xbeb3b38c	-0.3509792
52	0x40812a10	4.0363846
53	0xc01c454d	-2.4417298
54	0xc005e59d	-2.0921395
55	0xbf704a12	-0.9386302
56	0xbfd326fd	-1.6496273
57	0xbf1c173e	-0.60972965
58	0xc045f61a	-3.0931458
59	0xbfcfc553	-1.6232094
60	0xbf4aa8e7	-0.79163975
61	0xbfe149c5	-1.7600638
62	0xbf7d0f3b	-0.98851365
63	0xbfe0b873	-1.755629
64	0xbfd755eb	-1.6823095
65	0x403ab1ab	2.917094
66	0x4006bd1d	2.1052926
67	0xbfc3f090	-1.5307789
68	0x3ebb1ae7	0.36543962
69	0xbf0bea16	-0.5465406
70	0x3f937845	1.1521078
71	0x4003ca0d	2.0592072
72	0xbeafc055	-0.34326425
73	0xbf19cb04	-0.600754
74	0xc0096c5c	-2.1472387
75	0xbfef3813	-1.8688987
76	0x3e1bf449	0.15229906
77	0xc02ec1c5	-2.7305768
78	0x40a70f01	5.2205815
79	0x4007fa3e	2.1246486
80	0xbf36fe7a	-0.7148205
81	0xbf692524	-0.910723
82	0xbde6bed6	-0.11266868
83	0xc00ba77d	-2.1820977
84	0xbe872f5a	-0.26403314
85	0xbf0658e8	-0.5247941
86	0xc00498cf	-2.0718267
87	0xbf659a8b	-0.8968894
88	0xc0458b43	-3.0866249
89	0x40aca319	5.3949094
90	0x4045ab3e	3.0885768
91	0xbf1f0273	-0.6211311
92	0x3f3b1e8b	0.7309348
93	0xbe639253	-0.22223787
94	0xbf8e1a59	-1.1101791
95	0xc054b6cb	-3.3236568
96	0x3eff4363	0.498561
97	0xbe4f923a	-0.20270625
98	0xc01aa7c5	-2.4164898
99	0xbff6bd3a	-1.9276497
100	0xbfbca37f	-1.4737395
101	0xbfc72226	-1.5557296
102	0xbf3e3b68	-0.74309397
103	0xc0418317	-3.023626
104	0xbff27277	-1.8941182
105	0xc0269780	-2.6029968
106	0xbe052434	-0.13002092
107	0xbf95d21c	-1.1704745
108	0x3fa1705a	1.2612412
109	0xc00f7662	-2.2416005
110	0x3fb2749a	1.3941834
111	0x3fbeb54e	1.489908
112	0xbe85e7b8	-0.2615335
113	0x3f23d75b	0.6400048
114	0xbf980353	-1.1876014
115	0xc0115dc6	-2.2713485
116	0x3ff8201c	1.9384799
117	0xbfa82e40	-1.3139114
118	0xbfc8d231	-1.5689145
119	0x40b7a490	5.738838
120	0xbfc5da8a	-1.5457318
121	0x3f0c313d	0.5476263
122	0x3f1b1227	0.60574573
123	0xbf7f4258	-0.9971061
124	0xbf46603c	-0.7749059
125	0x3ea8fdd1	0.33006147
126	0xbf99d44f	-1.2017916
127	0xbf47fa28	-0.78116083
128	0xbfadc352	-1.3575232
129	0x40b8e7f4	5.7783146
130	0xbfdf6e8f	-1.7455615
131	0x3e2a96d8	0.16659105
132	0xbee4486b	-0.445865
133	0xbf2e0f30	-0.67991924
134	0xbfb5100b	-1.4145521
135	0xbe185865	-0.1487747
136	0x3f4412ae	0.76591
137	0xbffd7bf6	-1.9803455
138	0xbf24354a	-0.6414381
139	0xc028b787	-2.6362016
140	0xbf2672a2	-0.65018666
141	0xbfb58ca4	-1.4183545
142	0xc0025589	-2.0364707
143	0xbf127d53	-0.5722248
144	0x3fac70ef	1.3471965
145	0xbf9cdba6	-1.2254531
146	0xc010a68a	-2.2601647
147	0xbfe7e7d6	-1.8117626
148	0xbef949ac	-0.4868902
149	0xc03d90da	-2.961966
150	0xbf4b270a	-0.79356444
151	0xc00f4680	-2.238678
152	0x3e2abcf3	0.16673641
153	0xbff0cec8	-1.8813105
154	0x3ef072ce	0.4696259
155	0xbee954d8	-0.45572543
156	0xbfc5eebc	-1.5463481
157	0xbf08448f	-0.5322961
158	0x3fb91172	1.4458449
159	0x3f96e6ac	1.1789145
160	0x403615dc	2.8450842
161	0x3f337a9b	0.70108956
162	0x3f1269b9	0.5719257
163	0x3fe90e8e	1.8207567
164	0xbf784fb9	-0.9699665
165	0xc02d3ffa	-2.7070298
166	0x402e37ef	2.722164
167	0xbfc7a9e7	-1.5598725
168	0x3f3280eb	0.69727963
169	0xc00bd6a8	-2.1849766
170	0xbffa43c9	-1.9551936
171	0xbfb1b30e	-1.3882768
172	0xbfe664aa	-1.799947
173	0x3fa76e69	1.308057
174	0xbff164db	-1.8858904
175	0x3f41270a	0.75450194
176	0xc00d9ece	-2.2128177
177	0x3e576a2f	0.210366
178	0x4061ed67	3.530115
179	0xc01b5485	-2.4270337
180	0x4005ac3a	2.0886369
181	0xbfc7ae23	-1.5600017
182	0xbe61ef48	-0.22063935
183	0xbff91a61	-1.9461175
184	0xc0105bd0	-2.2556038
185	0xc029ea9d	-2.6549447
186	0x3f3a3a99	0.7274566
187	0xbdaa4ab7	-0.08315032
188	0xc0171194	-2.360448
189	0x405d3ff9	3.4570296
190	0xc070de97	-3.7635858
191	0x3f809c9a	1.0047791
192	0xbfdf6606	-1.745301
193	0x3f0a9e09	0.5414739
194	0xc030e9a4	-2.7642603
195	0x3d1bb0fa	0.038010575
196	0xbe7e2166	-0.24817428
197	0xc014b90a	-2.323794
198	0xbf8c5935	-1.0964724
199	0xbebf8122	-0.37403208
200	0xbf81bc6c	-1.0135627
201	0x3f7e7eb6	0.99412096
202	0xc02d97c4	-2.712388
203	0x3faaa43c	1.333137
204	0xbfb15939	-1.3855354
205	0xbede2963	-0.4339095
206	0xbfd1766a	-1.6364262
207	0xbfa0f9cd	-1.2576233
208	0xc000982d	-2.009288
209	0xc01c63a0	-2.4435806
210	0xbd8ab407	-0.06772619
211	0xbfbda248	-1.4815149
212	0xc00e5bbd	-2.2243493
213	0xbfe9ec9e	-1.8275335
214	0xc0557cf0	-3.3357506
215	0x4097fad4	4.7493687
216	0x40b26d9d	5.5758805
217	0x3fbfb139	1.4975959
218	0xbfff3038	-1.993659
219	0xbffea8ad	-1.9895226
220	0x3f5c4517	0.8604292
221	0xc04b63f9	-3.1779768
222	0xbffd3d32	-1.97843
223	0xbf3bc9c6	-0.73354757
224	0xbdf9a231	-0.12189139
225	0xc029441f	-2.6447828
226	0xbffe1ca5	-1.9852492
227	0xbf9375bc	-1.1520305
228	0xbebfdea8	-0.3747456
229	0xc00e99fe	-2.228149
230	0xbbe77977	-0.0070640403
231	0xbffd4033	-1.9785217
232	0xc0157776	-2.3354163
233	0xbf00af4f	-0.502675
234	0x3f536614	0.82577634
235	0x400f9f8c	2.244113
236	0xc015eea1	-2.3426898
237	0xbfb07e5d	-1.3788563
238	0xbea35db4	-0.31907427
239	0xbfced43a	-1.6158516
240	0xbfb5d768	-1.4206362
241	0x4081de58	4.0583916
242	0x3f7664d7	0.9624762
243	0x40441704	3.0639048
244	0xbfc43bb9	-1.5330726
245	0xc0098625	-2.1488125
246	0xbfdf391e	-1.7439306
247	0x3f761882	0.96131146
248	0xc06c4be3	-3.6921318
249	0x4070d094	3.7627306
250	0x401d4b36	2.4577155
251	0xbf734252	-0.9502307
252	0xc01f7dd4	-2.492055
253	0xbff0e02a	-1.881841
254	0xbfeb6000	-1.8388672
255	0xbfed3be8	-1.8533907

fc1.bias f4 [128]
0	0x400f1f0d	2.2362702
1	0x405e5978	3.4742107
2	0x40233166	2.54989
3	0xbf520263	-0.8203489
4	0xbdafc74d	-0.085829355
5	0x3f4c3b15	0.7977765
6	0xbf8a2fe4	-1.0795865
7	0x4032859c	2.7894049
8	0x3fb34c82	1.4007723
9	0xbca87fec	-0.02056881
10	0x3fee49a3	1.8616222
11	0xbf756577	-0.9585795
12	0x3fd13d80	1.6346893
13	0x3f7ec95c	0.99526
14	0x3f8ec78c	1.1154647
15	0xbf08234c	-0.5317886
16	0xbe6e1a20	-0.23252153
17	0x400cd26e	2.2003436
18	0x3fd88c21	1.6917764
19	0x3fdaf149	1.7104884
20	0x3fd5f8e0	1.6716576
21	0x400b9ac0	2.1813202
22	0xbfbf5023	-1.4946331
23	0xbf389d9d	-0.721155
24	0x402a1a92	2.6578717
25	0xbe43cd9e	-0.19121405
26	0x3f8ddcd6	1.1083019
27	0x40686900	3.6314087
28	0x3fa0dc97	1.2567319
29	0x4053c412	3.3088422
30	0x3f88059f	1.0626715
31	0x3f965524	1.1744733
32	0xbf9567eb	-1.1672338
33	0xbf230aae	-0.6368817
34	0xbedf4f8d	-0.4361538
35	0x3d2789e4	0.040902987
36	0x3f872152	1.0557044
37	0xbf25bd5a	-0.6474205
38	0x4023b259	2.5577605
39	0x3f45bc9f	0.7724094
40	0x3f248761	0.6426907
41	0xbf721455	-0.94562274
42	0x40020f1a	2.0321717
43	0x3f24aba3	0.64324397
44	0x3ff369b9	1.9016639
45	0x40197f35	2.398389
46	0x402200f7	2.531309
47	0x3ff17394	1.8863397
48	0xbf699c92	-0.9125453
49	0xbf019e22	-0.50631917
50	0xbfa16c2f	-1.261114
51	0xbfa0738a	-1.253526
52	0xbe9f0f40	-0.31066322
53	0x3f4ab0cd	0.79176027
54	0x3e8a3994	0.26997054
55	0xbf134596	-0.57528055
56	0x3ffe27b7	1.985587
57	0xbf7a094c	-0.97670436
58	0x406e02f1	3.7189295
59	0xbe1e64aa	-0.15468088
60	0x3fe7dbd9	1.8113967
61	0xbf30c8e6	-0.69056547
62	0x3fb79373	1.4341873
63	0x4057b78c	3.3705778
64	0x3f6e7e29	0.93161255
65	0x3fc7d45a	1.561168
66	0x3fc3ed16	1.5306728
67	0xbef20788	-0.4727137
68	0xbf89e938	-1.0774298
69	0xbf6b4976	-0.9190897
70	0x3f44cdf0	0.76876736
71	0x40490259	3.1407683
72	0x400d1434	2.204358
73	0xbe65bd29	-0.2243544
74	0x3f025bce	0.5092133
75	0x3feb12b7	1.8365086
76	0x401330f0	2.299862
77	0x400c69e5	2.1939633
78	0xbf693da1	-0.91109663
79	0xbf6ff518	-0.9373336
80	0xbf290b1f	-0.66032594
81	0x3fe3272a	1.7746327
82	0xbef6a45b	-0.48172268
83	0xbeae816c	-0.34083116
84	0xbf1ea308	-0.61967516
85	0x4013f7e9	2.3120062
86	0xbf4874df	-0.7830333
87	0x3f119d1d	0.5688036
88	0x3fb62f61	1.4233209
89	0x3ed63673	0.41838416
90	0x401691b7	2.3526437
91	0xbf141a5b	-0.57852715
92	0x3fdeeb58	1.7415571
93	0x3f86148b	1.0475019
94	0x3ff6b1dd	1.927303
95	0x404679e6	3.10119
96	0xbf71bd0c	-0.9442909
97	0x3f85fefb	1.0468439
98	0x3fad4368	1.3536196
99	0x402534f5	2.5813572
100	0x3f3c06c9	0.73447853
101	0x3e2ee227	0.17078458
102	0x3f714673	0.9424812
103	0x3fa5fc56	1.2967632
104	0xbee129d6	-0.4397723
105	0xbf5e5647	-0.868504
106	0x402b86d7	2.680105
107	0x401ecf99	2.4814208
108	0x40221b1a	2.5329041
109	0xbf9a36fb	-1.2048029
110	0xbedd3683	-0.43205652
111	0x3fb035ee	1.3766458
112	0xbf1c4d56	-0.61055505
113	0x3ec09d8b	0.37620196
114	0x3e076071	0.13220383
115	0x3f4d12ed	0.80107003
116	0x3fe29943	1.7703022
117	0xbec3b1d0	-0.38221598
118	0x400881c3	2.13292
119	0x3fbdc91c	1.4826999
120	0xbf3b081b	-0.7305924
121	0xbf939988	-1.1531229
122	0xbf529064	-0.8225157
123	0x3f80bf2f	1.0058345
124	0xbf4650bc	-0.7746694
125	0xbf9bf115	-1.2182947
126	0xbfad9568	-1.356122
127	0xbf81a59f	-1.0128669

fc2.weight f4 [128, 128]
0	0x400a593f	2.1616971
1	0xbec47a78	-0.38374686
2	0x3eb5521e	0.35414213
3	0x3f31179b	0.69176644
4	0xbe3cabcc	-0.1842491
5	0xbec17fce	-0.3779282
6	0x3fee2b7f	1.8607024
7	0x3eb816f3	0.3595501
8	0x3f245545	0.6419261
9	0x3f4328c3	0.7623407
10	0x3ffd1182	1.9770968
11	0x3f584a6b	0.8448855
12	0x3ef2b991	0.474072
13	0xbf144e50	-0.57931995
14	0x3f90626a	1.1280034
15	0x3f172dd8	0.59054327
16	0x3f695d71	0.91158205
17	0xbe525f8b	-0.20544259
18	0x3ebf9748	0.37420106
19	0xbd94f617	-0.072735004
20	0x3eaf1c04	0.34201062
21	0x3d390384	0.04516937
22	0xbea21b4d	-0.31661454
23	0x3eae6de3	0.34068212
24	0x3f55893a	0.83412516
25	0x3ed99dc3	0.42503175
26	0x3fc01928	1.5007677
27	0xbedd297a	-0.43195707
28	0x3ed260d3	0.41089496
29	0x3eb7758a	0.35831863
30	0xbff7007c	-1.9297023
31	0xc01aa666	-2.4164062
32	0x3f272803	0.6529543
33	0xbf0147af	-0.50500005
34	0x3f69c177	0.9131083
35	0x3cf4ee44	0.02989877
36	0x3f084f6d	0.53246194
37	0x3fe9292c	1.821569
38	0x3ed1c935	0.4097382
39	0x3ccc251d	0.02492004
40	0xbf19ca9e	-0.60074794
41	0x3f4d97d5	0.803098
42	0x3fd02858	1.6262312
43	0x3f1e386c	0.6180484
44	0xc07cd4ca	-3.9504876
45	0x3f8d21d4	1.1025949
46	0xc08be942	-4.372224
47	0xbf9a46e3	-1.2052883
48	0x3ff433ab	1.9078268
49	0x3f245b9c	0.64202285
50	0x3f6242b2	0.8838302
51	0x3f9241dc	1.1426349
52	0x3f315e66	0.69284666
53	0x3d6f3859	0.058403347
54	0x3f293218	0.6609206
55	0xbf9410b6	-1.15676
56	0x3f033d85	0.51265746
57	0x3feec621	1.8654214
58	0xc01b8697	-2.4300897
59	0x3f71d24b	0.94461507
60	0x3fc0088d	1.500261
61	0x3ec58a31	0.38581994
62	0x400799a6	2.118753
63	0xbf0ff427	-0.5623192
64	0x3d60a283	0.054842483
65	0x3fd2f5eb	1.6481298
66	0x401ed92e	2.4820056
67	0x3fe3bb56	1.7791545
68	0x3fdaf053	1.7104591
69	0x3f68bf40	0.90916824
70	0xbd7fe14e	-0.062470727
71	0x3ee3760c	0.44426
72	0xbf984bf3	-1.1898178
73	0x3ee28d73	0.44248542
74	0xbe89ed7a	-0.26938993
75	0xbfa22507	-1.266755
76	0xc03f086c	-2.984889
77	0x3c3f0e9e	0.0116612
78	0x4003f7ab	2.0619915
79	0x3f0e0de2	0.55489933
80	0x3e425df9	0.1898116
81	0xbee6cd0f	-0.45078322
82	0x3e84a81c	0.25909507
83	0x3f881f79	1.0634605
84	0x3f5181e1	0.81838804
85	0x3f1cc77c	0.6124189
86	0x3f44ce5d	0.76877385
87	0xbfc1ce15	-1.5141016
88	0x3fbcaf28	1.4740953
89	0x3f8d1709	1.1022655
90	0xbe4003e8	-0.1875149
91	0x3e7765a1	0.24159862
92	0xbddea5d3	-0.10871472
93	0x40189ccf	2.3845708
94	0x3f2dbe0c	0.67868114
95	0xc037e4ac	-2.873332
96	0xbe23881b	-0.15969889
97	0x3f1e0434	0.61725163
98	0x3ec2f4f8	0.3807752
99	0x4025d791	2.5912821
100	0xbcf4c738	-0.029880151
101	0x3ee8c705	0.4546434
102	0xbf88be7b	-1.068313
103	0x3f51fe1f	0.82028383
104	0x3f0aaf50	0.54173756
105	0x3fe8d590	1.8190174
106	0xc04fb2c5	-3.2452862
107	0x3dd699a2	0.10478522
108	0xbf23e95d	-0.6402796
109	0x3e396f22	0.181088
110	0x3f62e742	0.8863412
111	0xbe874fd2	-0.26428086
112	0x3f46ca72	0.7765266
113	0x3f53fd70	0.8280859
114	0x3f1d54f5	0.6145776
115	0x3fb12252	1.3838599
116	0x3fd88ff9	1.6918937
117	0xbf324e03	-0.69650286
118	0xc0067a5d	-2.1012185
119	0xbed251e5	-0.41078106
120	0x3e83c3c5	0.25735298
121	0xbf34e6ea	-0.70664847
122	0x3faf3a60	1.368969
123	0x3ecff45b	0.40616116
124	0x3f62b7a4	0.88561463
125	0xbe83fcd2	-0.25778824
126	0x3f353f91	0.7080012
127	0x3f9617de	1.1726034
128	0x3fd6bf25	1.6777083
129	0xbeebb5e6	-0.46037215
130	0xc05a85aa	-3.4144082
131	0x3fb3c354	1.4043984
132	0x3fd64b39	1.6741706
133	0xc0099b6b	-2.150111
134	0x3dacb12a	0.08432229
135	0xc0809f6a	-4.0194597
136	0xc05d5a5c	-3.45864
137	0x3fedce37	1.8578557
138	0xbfc7587a	-1.5573876
139	0x3f81a8cf	1.0129641
140	0xbfad7aaa	-1.3553059
141	0xc0205a5f	-2.5055158
142	0xbda55a65	-0.08073882
143	0x401d092e	2.4536853
144	0x3f55b361	0.83476835
145	0xc053e0a0	-3.310585
146	0xbd00326f	-0.031298097
147	0xc0157e1c	-2.335822
148	0xbe804e17	-0.25059578
149	0xbe368e50	-0.17827725
150	0x3fb4f6be	1.41378
151	0x4007e68c	2.1234465
152	0x3f00341b	0.50079507
153	0x4008c9c4	2.1373148
154	0xc030f1ca	-2.7647576
155	0xc0474df0	-3.114132
156	0xbc366c8a	-0.011134276
157	0x3fb92e09	1.4467174
158	0xbf8f81f3	-1.1211532
159	0xbf236cc5	-0.63837844
160	0x3fd19e72	1.6376479
161	0xbd3e9fc7	-0.046539094
162	0x3f6a8a99	0.91617733
163	0x3fd2cb0d	1.6468216
164	0xbf9ffd9c	-1.249927
165	0x3fceb516	1.6149013
166	0xbfae1503	-1.3600162
167	0xbff75b2a	-1.9324696
168	0x3fb63250	1.4234104
169	0x40031737	2.048292
170	0x3f7d5932	0.98964226
171	0xc0254d76	-2.5828528
172	0x3e860263	0.26173696
173	0xbf67b489	-0.9050985
174	0xbd88d8e2	-0.06681992
175	0xc06d3c6e	-3.7068133
176	0x3fd4e0e2	1.6631129
177	0xbe2d1eaa	-0.16906229
178	0x3fc1b46f	1.5133189
179	0x3fe1a3d7	1.7628125
180	0xc0457bd3	-3.0856826
181	0xbf414bfc	-0.7550657
182	0xbf8e9161	-1.1138116
183	0x400df6d5	2.2181904
184	0x3f518a19	0.81851345
185	0x3f0c24c8	0.54743624
186	0x3e9b2dc5	0.30308357
187	0x3fb8d384	1.443955
188	0xbf042cec	-0.51631045
189	0x3fb18110	1.3867512
190	0xbda9a40d	-0.08283243
191	0xc05342d0	-3.300953
192	0xbf52d07a	-0.8234936
193	0xc0081c1b	-2.1267154
194	0x3d450ace	0.048106007
195	0x3f70e508	0.94099474
196	0x3f9c90c3	1.2231678
197	0x3fd7342b	1.6812795
198	0xbfe31a00	-1.774231
199	0xbfee3800	-1.861084
200	0xbf18fc9c	-0.5976045
201	0x3f769393	0.9631893
202	0x3f150796	0.582147
203	0xbfbcaf38	-1.4740973
204	0xbf58f1ef	-0.8474416
205	0x3f3f9991	0.748437
206	0x4018b2d9	2.385916
207	0x3fee0e73	1.859816
208	0x3fbca769	1.473859
209	0x3f1f7d53	0.62300605
210	0x40033207	2.0499284
211	0x3fe302d3	1.7735237
212	0x3ffcf367	1.976178
213	0xbfc6ed1d	-1.5541111
214	0x3fe665b2	1.7999785
215	0xbfd33c01	-1.6502687
216	0xbf4e0cde	-0.80488384
217	0xbf3fe6fe	-0.7496184
218	0xc0686fc8	-3.6318226
219	0xbd73035d	-0.05932938
220	0xc0543fa0	-3.3163834
221	0x3eb0671f	0.34453675
222	0xc012aa2a	-2.291636
223	0x3fa95979	1.323043
224	0x3fa480fd	1.2851864
225	0xc00acf8f	-2.1689184
226	0xc01a25ff	-2.408569
227	0xbf06c3a9	-0.52642304
228	0x3ea03501	0.3129044
229	0xbf08c480	-0.53424835
230	0xbf0b0edb	-0.5431954
231	0xbe02b54b	-0.1276447
232	0xc044059c	-3.0628424
233	0x4004a809	2.072756
234	0xc01c17a9	-2.438944
235	0xbe8e73c2	-0.2782269
236	0x3e2c1567	0.1680504
237	0x3e6c45bd	0.23073478
238	0x3f873649	1.0563442
239	0xbfedbae9	-1.8572665
240	0x3f8997c7	1.0749444
241	0x3fbb9e1f	1.465763
242	0xc03af78c	-2.921359
243	0xbf8cb50d	-1.0992752
244	0x3eb4bf40	0.35302162
245	0x3f8fda66	1.1238525
246	0x3f83c70b	1.0295118
247	0xc011f8b8	-2.2808056
248	0x3f1f1858	0.6214652
249	0x3f82344a	1.0172207
250	0x3d91cbae	0.07118927
251	0xbfac26e2	-1.3449366
252	0x40063ae2	2.097344
253	0x3fd1175b	1.6335253
254	0x3ff46eb8	1.9096289
255	0x3fe729e8	1.8059664

fc2.bias f4 [128]
0	0x3f097907	0.537003
1	0x3dd2e184	0.1029692
2	0xbebb1d03	-0.36545572
3	0xbd050281	-0.03247309
4	0xbd1723b7	-0.036899295
5	0x3e80aed9	0.25133398
6	0x3d92e9cb	0.07173499
7	0xbf41c7cf	-0.7569551
8	0x3ea5a2f7	0.32350895
9	0x3daf6a7e	0.08565234
10	0xbe80987a	-0.2511633
11	0x3fb8c8df	1.4436301
12	0xbeda08b0	-0.42584753
13	0xbd10153c	-0.0351765
14	0xbd1b0dff	-0.037855145
15	0x3d0b0d03	0.033947956
16	0xbea0c32f	-0.31398913
17	0x3f42e672	0.7613288
18	0x3d9db930	0.07701337
19	0x3f7e4d34	0.9933655
20	0xbe4e78a0	-0.20163202
21	0x3e879aa3	0.26485166
22	0xbe6b0a84	-0.2295323
23	0x3e920f03	0.28527078
24	0x3fb95409	1.447877
25	0xbf08810a	-0.533219
26	0x3e7786ed	0.24172564
27	0xbe14b4c4	-0.14522082
28	0x3f80bfc3	1.0058521
29	0x3fb7b6d7	1.4352673
30	0x3f19b030	0.60034466
31	0xbe79e3bd	-0.24403282
32	0x3e7cb457	0.24678169
33	0x3edb16c5	0.4279081
34	0xbc8c42d7	-0.017121715
35	0x3ed28b7d	0.41122046
36	0x3f076f82	0.5290452
37	0xbe272b64	-0.16325146
38	0xbeaa2813	-0.332337
39	0x3e01ba18	0.12668645
40	0x3f9a4f01	1.205536
41	0xbddd530d	-0.10806856
42	0xbe9823d8	-0.29714847
43	0x3f021368	0.5081086
44	0x3eaad57d	0.33366004
45	0x3fafb26a	1.3726323
46	0x3f161e73	0.5864021
47	0x3e80f394	0.25185835
48	0xbe9bdbd3	-0.3044115
49	0xbef3c884	-0.4761392
50	0xbe10b4e2	-0.14131501
51	0xbd2798ff	-0.040917393
52	0xbe0ad22e	-0.1355674
53	0x3fa4695d	1.2844654
54	0x3eda60d7	0.42652008
55	0x3f93fd29	1.1561633
56	0xbd157418	-0.03648767
57	0x3eb6ac9e	0.3567857
58	0x3f281677	0.6565928
59	0x3f22b542	0.6355783
60	0xbe188525	-0.1489454
61	0x3e5f0934	0.21780854
62	0xbd8faba4	-0.0701516
63	0x3eb7c35c	0.35891235
64	0x3f30c286	0.6904682
65	0xbe3d46e8	-0.1848408
66	0xbd94e7df	-0.072707884
67	0xbf09f761	-0.53893095
68	0xbe12201e	-0.14270064
69	0x3efa753f	0.48917577
70	0xbbb92343	-0.0056499555
71	0xbe53de66	-0.20690307
72	0x3fe60645	1.7970663
73	0x3f3eae5d	0.7448481
74	0xbe01d3a0	-0.12678385
75	0x3e90513f	0.28186986
76	0x3cf015d8	0.02930729
77	0xbe064a10	-0.1311419
78	0xbec79d9b	-0.3898743
79	0x3feb3081	1.8374177
80	0xbe0479bb	-0.12937061
81	0x3e1caa25	0.1529928
82	0x3eeaaad2	0.4583345
83	0x3e0d54d1	0.13801886
84	0xbe10021b	-0.14063303
85	0x3d98fde3	0.074703
86	0x3ed991ba	0.42493993
87	0xbe816d54	-0.25278723
88	0x3ea51dd5	0.32249323
89	0x3f396ae1	0.7242871
90	0xbf143ba7	-0.5790352
91	0x3f06d523	0.5266897
92	0x3fa3dbf3	1.2801498
93	0x3f5f8adf	0.87321275
94	0x3e22653b	0.15858929
95	0x3f58bcde	0.8466319
96	0x3fccb68c	1.5993209
97	0xbdad9797	-0.08476179
98	0xbdb47ace	-0.08812486
99	0xbc98663b	-0.018603435
100	0xbdb81a85	-0.08989433
101	0xbf463f1a	-0.77440035
102	0x3f2a075d	0.66417485
103	0xbdad0723	-0.08448627
104	0x3fbed1ab	1.4907736
105	0xbe351065	-0.17682035
106	0xbf87c610	-1.0607319
107	0x3f8030f5	1.001494
108	0xbe3ee637	-0.18642507
109	0xbe89215d	-0.26783267
110	0x3fbed6bf	1.4909285
111	0xbc8c5d33	-0.017134285
112	0xbec0204a	-0.37524635
113	0x3fca1160	1.5786552
114	0xbf0b2d88	-0.5436635
115	0xbcaea1e9	-0.02131744
116	0x3dc319d3	0.0952641
117	0xbbdd4ca9	-0.0067535234
118	0x3ef3df60	0.4763136
119	0x3f919c35	1.1375796
120	0x3e566729	0.2093779
121	0xbeff3f70	-0.49853086
122	0xbd31be68	-0.043394476
123	0xbd820628	-0.063488305
124	0x3f4b4de6	0.7941574
125	0x3f1cddf6	0.61276186
126	0x3e1a1e9c	0.15050739
127	0x3f8fe4be	1.1241682

fc3.weight f4 [9, 128]
0	0xc080bd73	-4.023126
1	0xbf38acf0	-0.7213888
2	0x3fe6fe07	1.8046273
3	0x3f272aa3	0.65299433
4	0x3d717dd5	0.058957893
5	0xbe94dfa5	-0.29076877
6	0x3f701d7b	0.93794984
7	0x3fe3e3e7	1.7803925
8	0x400531ec	2.081172
9	0xbf0715a8	-0.5276742
10	0x3d97a25e	0.07404016
11	0x4057b808	3.3706074
12	0xbf96c634	-1.1779237
13	0x3cbb91fb	0.022896757
14	0x3f8b7007	1.0893563
15	0x400f444b	2.2385433
16	0x401e81e7	2.4766786
17	0x4085a59a	4.176465
18	0x3e325627	0.17415677
19	0x3fb02cb5	1.3763644
20	0x3ec9e914	0.39435637
21	0x4032fc5a	2.7966523
22	0xbd5395b0	-0.051656425
23	0xbf21e4b6	-0.6323961
24	0x3ffe3ba1	1.9861947
25	0x40220169	2.531336
26	0x3fbe2db3	1.4857696
27	0x3a89c622	0.0010511319
28	0x4088ab7d	4.2709336
29	0x4013a55f	2.3069685
30	0xbcdf89fe	-0.02728748
31	0x3e15c154	0.1462453
32	0x402c500a	2.6923852
33	0x3f24acdb	0.64326257
34	0x3ec777b8	0.38958526
35	0x3f8f88fb	1.1213678
36	0x40824266	4.0706053
37	0x3e8f48e3	0.27985296
38	0xbfa32f03	-1.2748722
39	0x3fa73092	1.3061697
40	0xbe95443b	-0.29153618
41	0x3db1ce96	0.08681981
42	0xbf229dfa	-0.63522303
43	0x3ef75886	0.48309726
44	0x403532fa	2.8312364
45	0x401e7765	2.4760373
46	0x3ea87db9	0.3290842
47	0xbf921d52	-1.1415198
48	0x3e16c488	0.14723408
49	0x3fe3d86e	1.7800424
50	0x3db57db6	0.08861868
51	0xbf9095b3	-1.1295685
52	0x3f847262	1.0347407
53	0x3fe2adc3	1.7709278
54	0x3eff8047	0.49902555
55	0x4027738f	2.6164281
56	0xbc658075	-0.014007677
57	0x3fe4be0d	1.7870499
58	0x3efa369c	0.4886979
59	0x3ecc77eb	0.3993524
60	0xbe76857e	-0.2407436
61	0x3f01d92c	0.50722003
62	0xbd0ed6ca	-0.034872808
63	0x3fc45da6	1.5341079
64	0x4084a4f4	4.145136
65	0x3f1fdb2a	0.6244379
66	0xbd87775e	-0.06614564
67	0xbe9d21da	-0.3068989
68	0x3f84877e	1.0353849
69	0x403b8b2d	2.9303696
70	0x3d03c43e	0.032169573
71	0x3ed2010e	0.4101643
72	0x4035e00a	2.8417993
73	0xbcdeffce	-0.027221587
74	0x3df363e9	0.11884291
75	0x3ffea4ec	1.989408
76	0x3fc5f46c	1.5465217
77	0x3ec94cb0	0.3931632
78	0x400a11ec	2.1573439
79	0x40269044	2.6025553
80	0x3efb54d3	0.49088153
81	0x403245fa	2.785521
82	0x3fab390e	1.3376787
83	0x3e8e79e9	0.27827385
84	0x3f2004d6	0.6250738
85	0x3fb7cf0b	1.436006
86	0x3f8d90ff	1.1059874
87	0x3f6cfd2d	0.92573816
88	0x3fb09a95	1.3797175
89	0x3fc9ae10	1.5756245
90	0x3fbc82f2	1.4727461
91	0x3fcce7c8	1.6008234
92	0x4028bfbf	2.6367033
93	0x3ffc35db	1.9703935
94	0x4068a360	3.6349716
95	0x3f9e03e0	1.2344933
96	0x401edb35	2.4821293
97	0xbf7120ee	-0.9419087
98	0x3ed1ebe6	0.4100029
99	0xbd4b4323	-0.049624573
100	0x3edc64fe	0.430458
101	0x3fc46da7	1.5345963
102	0x409cfdfa	4.906003
103	0x40161e2a	2.345591
104	0x4025f4d0	2.5930672
105	0xbc6d2f7c	-0.014476653
106	0x3fc7ef82	1.5619967
107	0x3ed51d2c	0.4162382
108	0x3df9098b	0.12160023
109	0xbb8abec2	-0.004234166
110	0x408b77ee	4.35839
111	0x3d745792	0.059653826
112	0x3fb8e299	1.4444152
113	0x4029fe81	2.6561587
114	0x3ff2d848	1.8972254
115	0xbf694b38	-0.911304
116	0x3fd2d12b	1.6470083
117	0x3da1b8ac	0.078965515
118	0x3f4aa85b	0.7916314
119	0x401a073f	2.4066923
120	0x3e042030	0.12902904
121	0xc00ad738	-2.169386
122	0x3f1137c5	0.5672572
123	0x3f1b3f88	0.60643816
124	0x3ef631f9	0.48085
125	0x40589437	3.3840463
126	0x402dfb63	2.7184684
127	0x4019eb76	2.4049964
128	0xbfbacde7	-1.4594086
129	0xbfcbeb11	-1.5931112
130	0x401c2e03	2.4403083
131	0xbe12f1cf	-0.14350055
132	0x3c06c607	0.008225924
133	0x3eb756bb	0.35808358
134	0x3fa2d92d	1.2722527
135	0x3ff01fc4	1.8759694
136	0x3f818a66	1.0120361
137	0xbfd85d91	-1.6903554
138	0x3e530d37	0.2061051
139	0x40218bfe	2.5241694
140	0xbe4ad38a	-0.19807258
141	0x3d9592cb	0.07303389
142	0x3eaa38c7	0.33246443
143	0x3fb27051	1.3940526
144	0x3fbef8f4	1.4919724
145	0x3fd67dfe	1.67572
146	0x3f07dc72	0.5307075
147	0x3e729012	0.23687771
148	0x3e08f18d	0.13373394
149	0x3f12bfb3	0.5732376
150	0x3f54843d	0.8301428
151	0x3ff911e4	1.9458585
152	0x3fa87c83	1.3162998
153	0xbf815262	-1.0103266
154	0x3f87a28f	1.0596484
155	0x3c2a75a3	0.010404023
156	0x3f996b6e	1.198591
157	0x3f9e39ed	1.2361428
158	0x3efb1053	0.49035892
159	0x4012b736	2.2924323
160	0x400d1547	2.2044237
161	0x3f8dfbd5	1.1092478
162	0xbef2e936	-0.4744355
163	0x3fbe7308	1.4878855
164	0x3fa0de3d	1.2567822
165	0xbc7091f2	-0.014683234
166	0xbea44611	-0.32084706
167	0xbed5caec	-0.4175638
168	0x3ede93fc	0.43472278
169	0x3e105019	0.14093055
170	0x3ecedfe0	0.40405178
171	0x3f03105f	0.51196855
172	0x3f6dcda5	0.92891914
173	0x3fd6286c	1.6731086
174	0x3ffbd1a9	1.9673358
175	0x3dbff7d8	0.09373444
176	0x3debd42e	0.115150794
177	0x3f20fbd8	0.62884283
178	0x3db48a75	0.08815471
179	0x400a0098	2.1562862
180	0x3f84a8d8	1.0364027
181	0x3f1bd9bf	0.6087913
182	0x4027174e	2.6107974
183	0x3f7a0523	0.9766409
184	0xbdc7561b	-0.0973322
185	0x400563e7	2.0842226
186	0x3f91f2b8	1.1402197
187	0x3f8cd102	1.1001284
188	0x3f93626d	1.1514412
189	0xbe8c3f53	-0.27392063
190	0x3db165a1	0.08661962
191	0x40155a57	2.333639
192	0x400a4b94	2.160863
193	0xbec32254	-0.38112128
194	0x3c2bcbf8	0.010485642
195	0x3f41dd08	0.7572789
196	0xbfbef8d7	-1.491969
197	0x3fb31f2d	1.3993889
198	0x3e0f8ce6	0.14018592
199	0x3efc9a0e	0.49336284
200	0x3fe804e3	1.8126491
201	0xbd9bd7e7	-0.076095395
202	0x3dde057b	0.10840889
203	0x40169fc7	2.353502
204	0x3f9466ff	1.1593932
205	0x3faf21e6	1.368222
206	0x40247f77	2.5702798
207	0x3f96de67	1.1786622
208	0x3f90cec7	1.1313103
209	0x403062ef	2.7560384
210	0xbd4d47f4	-0.050117448
211	0x3ed31caf	0.4123282
212	0xbf0ecfa0	-0.5578556
213	0x3f84e377	1.0381917
214	0x3fc8261f	1.5636634
215	0x3f0033b8	0.50078917
216	0x3fd060b9	1.6279517
217	0x4019778f	2.3979223
218	0x3ea31dc9	0.31858662
219	0x4024e1ac	2.576274
220	0x3fd995ea	1.6998875
221	0x4006b820	2.104988
222	0x4012ecd8	2.2957058
223	0x3fdefe4e	1.7421358
224	0x3ff21d87	1.8915261
225	0x4008be2b	2.136607
226	0x3fd70f95	1.680163
227	0xbd0b7fdb	-0.03405748
228	0x3eb49ae9	0.35274437
229	0x3fa711f6	1.3052356
230	0xbe9db497	-0.30801842
231	0x3f9e4b0c	1.2366652
232	0x400949ac	2.1451216
233	0x3c6b72b6	0.014370611
234	0x3f93449f	1.1505316
235	0x3dbe781d	0.093002535
236	0xbe716462	-0.23573449
237	0x3eeef616	0.46672124
238	0x3e6bf233	0.2304161
239	0xbcef528f	-0.029214172
240	0x3fbc48c3	1.4709705
241	0x3e311211	0.17292048
242	0x3f94d1dd	1.1626545
243	0xbecba2b3	-0.39772567
244	0x3f6d4646	0.92685354
245	0x3c67cdf2	0.014148222
246	0x3ee182f6	0.44045228
247	0x3fe96f21	1.8237039
248	0x3f10c16d	0.56545144
249	0xbfda14a6	-1.7037551
250	0x3fd3cf99	1.6547729
251	0x3db17f0d	0.08666811
252	0x3ef81d34	0.4845978
253	0xbf5dac7b	-0.8659131
254	0x3f21e9c1	0.63247305
255	0x40074772	2.1137357

fc3.bias f4 [9]
0	0x3fcb31a2	1.5874522
1	0x3fe66e8e	1.8002489
2	0x3e993600	0.2992401
3	0xbe01c5ca	-0.12673107
4	0x40068e08	2.102419
5	0xbe81b672	-0.25334507
6	0x3ff808cb	1.9377683
7	0x403336a2	2.8002095
8	0x400c9912	2.1968427
